DQN/4x4_map/final_weights2024-07-31 15:26:39.682159_2000.pth (torch, 4095 bytes, 6 tensors)

layers.0.weight f4 [12, 16]
-0.49501556 -0.327902 0.569688 -0.2957849 -0.41122523 0.14843553 0.16317192 0.33552483
0.45786327 0.33453396 -0.6071679 0.054310463 0.3709465 -0.06018256 -0.36085835 0.58379906
-0.22904435 -0.3486509 -0.5520875 0.02417787 0.2220748 0.1355565 0.113424614 -0.46441558
-0.57188684 0.015344868 0.5357486 0.35329074 -0.35654423 -0.083551936 -0.45143092 -0.29542282
0.16758683 0.33833504 0.48594412 -0.5622229 0.37999392 -0.43190145 0.22456583 0.5182173
0.008599165 0.55361795 -0.52177286 -0.23390129 0.35716802 -0.13341627 -0.12535278 -0.25523174
0.3356479 0.2940682 0.2122307 -0.34413108 -0.49709308 0.06623458 0.18658482 -0.28273964
-0.17134039 0.41165826 0.048781406 0.027629225 -0.15070519 -0.5545582 -0.5757878 -0.29272327
-0.31128204 0.19531728 -0.17826821 -0.23957366 0.6203586 0.21330333 0.44192305 -0.29645732
-0.25013384 0.23133239 -0.40800855 -0.40031037 -0.029577387 -0.22398177 -0.4590699 0.36323422
0.4404802 0.098525055 -0.106622174 -0.5672241 -0.22304977 0.15590122 0.28223917 -0.07741461
-0.24210319 0.3337727 -0.48769325 0.3870304 -0.23757285 0.009372605 -0.12101451 0.07424339
-0.18505798 0.4472901 -0.012251129 0.47699517 0.56939965 -0.29834232 -0.4467313 0.49130765
0.47907797 -0.46757534 -0.048034385 -0.6038766 -0.5012875 0.11682683 0.16282462 0.12981136
-0.16666616 0.5658988 0.09353331 -0.36135167 -0.037742402 0.14705831 0.2136047 -0.43299684
0.23233609 -0.31284985 -0.508845 -0.33448237 0.5905777 0.5240073 0.5486443 0.3594695
0.3788884 -0.08196589 -0.3369444 0.30561095 -0.31732085 -0.41326925 -0.19555137 0.12851202
0.3128346 -0.23785098 -0.3604218 0.082604796 -0.36095265 -0.39869207 0.3199836 -0.102869146
0.54569894 0.59483814 0.21445519 0.21365978 0.1814953 0.009590292 -0.044539347 0.008416518
0.23288189 0.57530034 -0.15870188 -0.25885952 -0.14829509 -0.29585198 0.1039867 0.45710444
0.4119893 0.27650183 -0.4506642 -0.32866323 -0.11542067 -0.11287503 0.05353649 -0.56214046
0.19096036 -0.46716186 -0.3874754 -0.50911576 0.53357214 -0.5798799 0.46229264 -0.020586064
-0.081677996 0.37536606 -0.060457487 0.3808579 0.39585602 -0.53166795 0.22923324 0.11560306
0.12220472 0.08162573 0.16399892 -0.29459208 -0.07834762 0.5776623 0.41214216 -0.023005884
00000000: ae72 fdbe c5e2 a7be 13d7 113f 1e71 97be
00000010: 1d8c d2be 7cff 173e 8a16 273e e9c9 ab3e
00000020: 0e6d ea3e 0948 ab3e 5b6f 1bbf a674 5e3d
00000030: b3ec bd3e fd81 76bd 6dc2 b8be db73 153f
00000040: 9a8a 6abe 5f82 b2be 9b55 0dbf ab10 c63c
00000050: 9467 633e 53cf 0a3e 2a4b e83d e1c7 edbe
00000060: 2d67 12bf 0b69 7b3c d226 093f 86e2 b43e
00000070: f78c b6be 471d abbd f421 e7be a941 97be
00000080: e29b 2b3e 403a ad3e abcd f83e d7ed 0fbf
00000090: 908e c23e 3022 ddbe 96f4 653e e4a9 043f
000000a0: 83e3 0c3c e8b9 0d3f e892 05bf d283 6fbe
000000b0: bade b63e 469e 08be 7b5c 00be bcad 82be
000000c0: 0bda ab3e 1b90 963e 0153 593e f331 b0be
000000d0: fc82 febe ffa5 873d 1710 3f3e 40c3 90be
000000e0: db73 2fbe dfc4 d23e 03cf 473d af56 e23c
000000f0: 7652 1abe 87f7 0dbf d466 13bf d3df 95be
00000100: 5c60 9fbe 4101 483e f18b 36be cc52 75be
00000110: d2cf 1e3f 306c 5a3e bd43 e23e 41c9 97be
00000120: 8b11 80be 66e2 6c3e 7fe6 d0be 7bf5 ccbe
00000130: 474c f2bc 7a5b 65be 360b ebbe d6f9 b93e
00000140: 9f86 e13e 81c7 c93d ba5c dabd 9935 11bf
00000150: 2967 64be 92a4 1f3e a781 903e 8d8b 9ebd
00000160: e6e9 77be 41e4 aa3e eeb2 f9be d928 c63e
00000170: 4c46 73be 8e8f 193c 75d6 f7bd eb0c 983d
00000180: d77f 3dbe 3503 e53e f6b8 48bc b638 f43e
00000190: 2dc4 113f 53c0 98be f7b9 e4be ad8c fb3e
000001a0: b549 f53e 0966 efbe b4bf 44bd a897 1abf
000001b0: 6154 00bf e842 ef3d 7fbb 263e 45ed 043e
000001c0: 89aa 2abe bede 103f 648e bf3d 1603 b9be
000001d0: c797 1abd 7496 163e 31bb 5a3e c3b1 ddbe
000001e0: 83e9 6d3e db2d a0be aa43 02bf 4641 abbe
000001f0: 1a30 173f 5825 063f f473 0c3f 630c b83e
00000200: a9fd c13e bcdd a7bd fa83 acbe 0a79 9c3e
00000210: e177 a2be 0798 d3be 9e3e 48be a898 033e
00000220: db2b a03e 358f 73be 3589 b8be b42c a93d
00000230: c9ce b8be 5e21 ccbe e4d4 a33e 0fad d2bd
00000240: edb2 0b3f 5047 183f 249a 5b3e a1c9 5a3e
00000250: e7d9 393e 9a20 1d3c e46e 36bd 6fe5 093c
00000260: 9778 6e3e e246 133f bf82 22be 3c89 84be
00000270: abda 17be e979 97be fbf6 d43d 9809 ea3e
00000280: 43f0 d23e a691 8d3e 75bd e6be 8c46 a8be
00000290: ac61 ecbd 062b e7bd 1449 5b3d 70e8 0fbf
000002a0: 1d8b 433e d72f efbe 2d63 c6be 6955 02bf
000002b0: 2f98 083f 0273 14bf 9fb1 ec3e 1ba4 a8bc
000002c0: cb46 a7bd fb2f c03e 45a2 77bd cfff c23e
000002d0: a4ad ca3e 641b 08bf 1ebc 6a3e 4cc1 ec3d
000002e0: 7846 fa3d 642b a73d 55ef 273e c6d4 96be
000002f0: b874 a0bd ade1 133f 4c04 d33e d676 bcbc

layers.0.bias f4 [12]
0.114745624 0.13258158 -0.022209685 -0.12953249 0.056307312 -0.08167246 0.042366825 0.07666051
-0.31278482 -0.022328608 0.16199191 -0.005272126
00000000: c1ff ea3d 77c3 073e 16f1 b5bc 2aa4 04be
00000010: 7fa2 663d e443 a7bd d688 2d3d 2f00 9d3d
00000020: 5525 a0be 7cea b6bc 35e1 253e ccc1 acbb

layers.2.weight f4 [8, 12]
-0.6650194 0.03107204 -0.49042496 0.56085193 -0.431264 -0.07026586 -0.160727 0.12142721
0.6593849 0.03841548 0.37656415 0.54633963 0.5609263 -0.24563722 -0.18756302 0.28090125
-0.19557762 0.24929672 -0.16001408 -0.48425132 0.2558662 0.010472439 0.19012138 0.698362
0.48013273 0.6595309 0.03607285 -0.60859406 -0.49605465 -0.43923616 -0.6232381 -0.35504302
-0.6509397 -0.652904 -0.42253488 -0.699779 -0.43389842 0.26881838 0.5922802 -0.21030872
-0.20170723 0.37767008 -0.34492806 -0.33413035 0.43566936 -0.6157612 0.08698701 0.62689227
0.121259265 0.1922933 -0.41181272 -0.009755647 0.03887988 0.17354824 0.2747435 0.61442477
-0.53973424 0.021195734 -0.3532962 -0.55936664 -0.06901971 -0.6236537 0.4834716 0.07858563
-0.38312945 0.36754492 -0.66957676 -0.27562758 -0.13775764 -0.60686624 -0.44964096 -0.116133206
0.49981728 0.63239086 0.39875692 -0.42771313 -0.5174692 0.61351717 0.19289528 0.0008536949
0.09535412 -0.58411044 -0.24608119 0.63148344 -0.17427477 -0.035342522 -0.58713275 -0.39556056
-0.014438836 -0.43922603 -0.08741127 0.28879794 -0.6916758 0.21001926 -0.46754476 -0.34407625
00000000: b63e 2abf ca8a fe3c fb18 fbbe fe93 0f3f
00000010: a3ce dcbe 8ce7 8fbd 9e95 24be d4ae f83d
00000020: 73cd 283f 8d59 1d3d 04cd c03e eadc 0b3f
00000030: de98 0f3f 5388 7bbe 8510 40be 4ad2 8f3e
00000040: 8045 48be a447 7f3e bbda 23be caef f7be
00000050: e500 833e 9894 2b3c 2eaf 423e dac7 323f
00000060: f5d3 f53e 04d7 283f 20c1 133d d2cc 1bbf
00000070: e0fa fdbe 90e3 e0be 888c 1fbf 33c8 b5be
00000080: fca3 26bf b724 27bf 7e56 d8be b724 33bf
00000090: ef27 debe 90a2 893e ad9f 173f 2b5b 57be
000000a0: 578c 4ebe f95d c13e 699a b0be 2213 abbe
000000b0: 0e10 df3e 87a2 1dbf 3f26 b23d 037c 203f
000000c0: c756 f83d 89e8 443e 1ed9 d2be 26d6 1fbc
000000d0: 8240 1f3d a1b6 313e 2eab 8c3e f14a 1d3f
000000e0: 062c 0abf ada2 ad3c 3de3 b4be a732 0fbf
000000f0: 355a 8dbd c5a7 1fbf 9789 f73e 81f1 a03d
00000100: 8b29 c4be d92e bc3e 6269 2bbf 0f1f 8dbe
00000110: 5710 0dbe 965b 1bbf 5737 e6be 3fd7 edbd
00000120: 0de8 ff3e 5ee4 213f de29 cc3e 37fd dabe
00000130: dd78 04bf 760f 1d3f 5786 453e 7fca 5f3a
00000140: 0549 c33d 4388 15bf b5fc 7bbe e6a8 213f
00000150: 1675 32be 52c3 10bd 554e 16bf ea86 cabe
00000160: de90 6cbc 3ce2 e0be ae04 b3bd 53dd 933e
00000170: aa11 31bf 4a0f 573e 0762 efbe c32a b0be

layers.2.bias f4 [8]
-0.04623761 -0.27320075 -0.118618086 -0.13742912 -0.23493172 0.22180279 -0.28006542 0.07822868
00000000: a663 3dbd f8e0 8bbe 0aee f2bd 38ba 0cbe
00000010: f191 70be 4520 633e bc64 8fbe 5c36 a03d

layers.4.weight f4 [4, 8]
0.29314256 0.6837432 -0.23368426 -0.3503667 -0.7830912 -0.43818748 -0.73244196 -0.19816993
0.20729448 -0.7939705 0.7531486 0.5397794 -0.84779197 -0.41063392 0.27749673 -0.17794006
-0.01902819 -0.35845074 0.6949807 -0.481621 0.71817476 0.055070095 0.18578686 0.6756175
-0.028118119 -0.44389898 -0.13789669 0.70960766 -0.64257985 0.20288832 -0.81581783 0.454129
00000000: c816 963e cb09 2f3f ed4a 6fbe 4463 b3be
00000010: aa78 48bf 1c5a e0be 5181 3bbf 0fed 4abe
00000020: 0145 543e a741 4bbf 59ce 403f fc2e 0a3f
00000030: e508 59bf 9c3e d2be 0d14 8e3e eb35 36be
00000040: 02e1 9bbc db86 b7be 41ea 313f 0797 f6be
00000050: 4dda 373f 2e91 613d e93e 3e3e 45f5 2c3f
00000060: f857 e6bc ba46 e3be ca34 0dbe d9a8 353f
00000070: 1d80 24bf f5c1 4f3e 70d9 50bf 9983 e83e

layers.4.bias f4 [4]
-0.0252431 -0.002868411 0.040403888 0.03966567
00000000: 9eca cebc f3fb 3bbb 8c7e 253d 7878 223d
