DQN/4x4_map/final_weights2024-07-06 16:56:40.697539_1000.pth (torch, 4095 bytes, 6 tensors)

layers.0.weight f4 [12, 16]
00000000: ae72 fdbe 38c1 9dbe f743 193f 5a1b 05be
00000010: 1d8c d2be 7cff 173e d087 e8bd e9c9 ab3e
00000020: c644 e93d 4ae6 153f 5b6f 1bbf a674 5e3d
00000030: b3ec bd3e 9b44 a33d 6dc2 b8be db73 153f
00000040: 9a8a 6abe 5f82 b2be 9b55 0dbf 194e 99bd
00000050: ff7b 9e3e 53cf 0a3e f032 423e e1c7 edbe
00000060: 2d67 12bf ea56 d1bb d491 283f 86e2 b43e
00000070: f78c b6be 6b34 45be f421 e7be a941 97be
00000080: 5b7a 143e df03 e43e 70c9 b33e d7ed 0fbf
00000090: 2f1f e33e 3022 ddbe 8429 e83e e4a9 043f
000000a0: abbd 563d c78f 0e3f e892 05bf d283 6fbe
000000b0: bade b63e 6b24 26be 6ca1 2cbe bcad 82be
000000c0: 603a c53e 65b1 b13e b776 3b3e f331 b0be
000000d0: fc82 febe ffa5 873d bf72 283e 40c3 90be
000000e0: db73 2fbe 315c 573e 03cf 473d af56 e23c
000000f0: 7652 1abe 87f7 0dbf d466 13bf d3df 95be
00000100: 5c60 9fbe 829a d63e f18b 36be cc52 75be
00000110: 284d 193f 306c 5a3e f583 163f 41c9 97be
00000120: 8b11 80be c5f7 8f3d 7fe6 d0be 7bf5 ccbe
00000130: 474c f2bc 7a5b 65be 360b ebbe d6f9 b93e
00000140: 3fe8 da3e b933 6c3d ba5c dabd 9935 11bf
00000150: 2967 64be 92a4 1f3e 3f9e cc3e 8d8b 9ebd
00000160: e6e9 77be cfc7 a93e eeb2 f9be d928 c63e
00000170: 4c46 73be 8e8f 193c 75d6 f7bd eb0c 983d
00000180: d77f 3dbe b664 1b3f d9e0 1cbd fff3 e83e
00000190: 8602 f33e 53c0 98be f7b9 e4be ad8c fb3e
000001a0: 6552 993e 0966 efbe d7c9 70bd a897 1abf
000001b0: 6154 00bf ef80 a13e 083d 98bd 45ed 043e
000001c0: ac2c 503b 4794 c73e 0288 f43e 1e8d 8ebe
000001d0: fa53 0ebe 7496 163e 1ff0 4ebe c3b1 ddbe
000001e0: df01 d43d 8d7a 8d3c 82db 06bf 4641 abbe
000001f0: 1a30 173f dd17 7b3f ccd0 243f 630c b83e
00000200: 1f6f 0b3f bcdd a7bd fa83 acbe 701f 323e
00000210: e177 a2be 0798 d3be 9e3e 48be a898 033e
00000220: c8b2 513e 358f 73be 3589 b8be b42c a93d
00000230: c9ce b8be 5e21 ccbe 3f50 343e 0fad d2bd
00000240: 791f eb3e 3a0e 063f b68c 5c3e 72e0 db3e
00000250: 46c5 303e 9a20 1d3c e46e 36bd 6fe5 093c
00000260: 3dab 8e3e b5f6 133f bf82 22be 3c89 84be
00000270: abda 17be e979 97be 142e ae3d 9809 ea3e
00000280: 2d3d 083f 77aa 883e 75bd e6be fdfd b1be
00000290: 59f0 85bb 062b e7bd 5e50 b53e 70e8 0fbf
000002a0: 1e6c ec3e d72f efbe 2d63 c6be 6955 02bf
000002b0: 2f98 083f 0273 14bf 957b ae3e 1ba4 a8bc
000002c0: 74ee 643d 8e0c 8a3e 1e62 523c a550 9b3d
000002d0: 831e ed3e 641b 08bf 7ea5 9d3e 4cc1 ec3d
000002e0: 154d 98bd b418 253d cad8 8e3e c6d4 96be
000002f0: b874 a0bd 1d5e e23e 2327 163f d676 bcbc
-0.49501556 -0.30811477 0.5986933 -0.12998715 -0.41122523 0.14843553 -0.11354029 0.33552483
0.113900706 0.5855452 -0.6071679 0.054310463 0.3709465 0.0797207 -0.36085835 0.58379906
-0.22904435 -0.3486509 -0.5520875 -0.07485599 0.30953977 0.1355565 0.18964744 -0.46441558
-0.57188684 -0.006388535 0.65847516 0.35329074 -0.35654423 -0.19258277 -0.45143092 -0.29542282
0.144998 0.44534203 0.35114622 -0.5622229 0.4435973 -0.43190145 0.45344174 0.5182173
0.052426975 0.55688137 -0.52177286 -0.23390129 0.35716802 -0.1622483 -0.16858453 -0.25523174
0.385211 0.34705654 0.18307005 -0.34413108 -0.49709308 0.06623458 0.16450022 -0.28273964
-0.17134039 0.21031262 0.048781406 0.027629225 -0.15070519 -0.5545582 -0.5757878 -0.29272327
-0.31128204 0.41914755 -0.17826821 -0.23957366 0.59883356 0.21330333 0.587951 -0.29645732
-0.25013384 0.0702968 -0.40800855 -0.40031037 -0.029577387 -0.22398177 -0.4590699 0.36323422
0.42755315 0.057666514 -0.106622174 -0.5672241 -0.22304977 0.15590122 0.39964482 -0.07741461
-0.24210319 0.33160254 -0.48769325 0.3870304 -0.23757285 0.009372605 -0.12101451 0.07424339
-0.18505798 0.6070055 -0.03830037 0.45498654 0.47462863 -0.29834232 -0.4467313 0.49130765
0.29945675 -0.46757534 -0.05878624 -0.6038766 -0.5012875 0.3154368 -0.07433516 0.12981136
0.0031764908 0.38980314 0.47760016 -0.2784204 -0.13899222 0.14705831 -0.20208786 -0.43299684
0.103519194 0.01727035 -0.5267869 -0.33448237 0.5905777 0.9808329 0.643811 0.3594695
0.5446643 -0.08196589 -0.3369444 0.17394805 -0.31732085 -0.41326925 -0.19555137 0.12851202
0.20478356 -0.23785098 -0.3604218 0.082604796 -0.36095265 -0.39869207 0.17608736 -0.102869146
0.4592245 0.5236546 0.21538052 0.42944676 0.17262754 0.009590292 -0.044539347 0.008416518
0.2786502 0.5779832 -0.15870188 -0.25885952 -0.14829509 -0.29585198 0.085048825 0.45710444
0.53218347 0.26692554 -0.4506642 -0.3476409 -0.0040874896 -0.11287503 0.35412878 -0.56214046
0.46176237 -0.46716186 -0.3874754 -0.50911576 0.53357214 -0.5798799 0.3407866 -0.020586064
0.05589147 0.26962703 0.012840776 0.07583741 0.4631234 -0.53166795 0.30790323 0.11560306
-0.07436577 0.04030676 0.27899772 -0.29459208 -0.07834762 0.44212428 0.5865347 -0.023005884

layers.0.bias f4 [12]
00000000: 2749 9c3e bf4a 423e d9ac ab3d 3263 5cbe
00000010: b551 dd3c d3ac adbd a62c 1cbd c02a 053f
00000020: fb35 56be 7806 10bc f56e a93e 232e 113e
0.3052456 0.18973826 0.083825774 -0.21522215 0.0270165 -0.08480229 -0.038128518 0.52018356
-0.2091903 -0.008790605 0.33092466 0.14177756

layers.2.weight f4 [8, 12]
00000000: 16f1 3cbf 0b56 5cbe 6de1 21bf 0f38 323f
00000010: 3b80 25bf 6dca fa3d 1995 e4be a3e5 de3e
00000020: 2bf0 723f e361 0e3e defb 1b3f 812f ee3e
00000030: 2fa4 053f 9200 90be 9386 9fbe bd0c 803e
00000040: a714 62be e54e 6f3e d227 44be 4934 12bf
00000050: 489f 4b3e 63bf 0fbb 6148 583e 7017 223f
00000060: 0247 ef3e 9d69 103f 5e7a b73c 31ab 1fbf
00000070: e0fa fdbe 90e3 e0be 526c 23bf ec5c bdbe
00000080: fca3 26bf 2ffe 2abf 7e56 d8be f8b5 4fbf
00000090: 6606 03bf 27e9 313f b5cf 1e3f bf42 11be
000000a0: 380d fdbd 4612 e13e d6f6 84be 89f0 dcbe
000000b0: 28c7 313f 7283 0ebf 9fc0 b43e 3ca7 4d3f
000000c0: 9e7a 163d 9bb4 813e 8b25 f0be 26d6 1fbc
000000d0: 8240 1f3d a1b6 313e 0046 a83e d966 303f
000000e0: ad66 11bf 00cc edbd 04c8 dbbe 4e3d efbe
000000f0: bc6f 13be 7aa2 1abf 0d42 ce3e b201 d93b
00000100: 4c73 b9be faa2 c63e 2247 2dbf ac3a c6be
00000110: 5710 0dbe 893f 2fbf 5737 e6be 370c d9bd
00000120: c9bf 203f 7753 053f 5cd3 043f 7cc9 c2be
00000130: 47bd f8be 65aa 353f aec1 0d3e 1e40 883e
00000140: d9cd 083e 825d f7be 077a e6be 5b7c 2f3f
00000150: d43d bd3e 88df 69bc 4150 b9be 589c 77be
00000160: eb3b 84be 4c13 bfbe b3c5 373c 3208 2b3f
00000170: 9278 f9be aa83 f93e d6d0 9fbe cafd f0bd
-0.7380537 -0.21517198 -0.632346 0.6961679 -0.6464879 0.12245641 -0.44645002 0.43534574
0.9489772 0.13904528 0.60931194 0.46520618 0.5220365 -0.28125435 -0.3115736 0.2500972
-0.2207819 0.2336994 -0.19155815 -0.5711103 0.1988498 -0.0021934144 0.2112136 0.6331701
0.46733862 0.56411153 0.022397216 -0.6237059 -0.49605465 -0.43923616 -0.6383716 -0.36984956
-0.6509397 -0.66794103 -0.42253488 -0.8113704 -0.5118164 0.6949639 0.62035686 -0.14185618
-0.12356037 0.43959254 -0.2596957 -0.43152264 0.69444513 -0.5566932 0.35303208 0.80333304
0.03673803 0.25333104 -0.46903643 -0.009755647 0.03887988 0.17354824 0.32865906 0.68906933
-0.56797296 -0.116111755 -0.42926037 -0.4672646 -0.14398092 -0.6040417 0.40284768 0.0066225166
-0.36220777 0.38796216 -0.67686665 -0.38716638 -0.13775764 -0.6845632 -0.44964096 -0.10598033
0.6279264 0.5208048 0.5188501 -0.38044345 -0.48581907 0.70963126 0.13843414 0.26611418
0.13359775 -0.48313528 -0.45014974 0.68549126 0.36961234 -0.014274485 -0.3619404 -0.24180734
-0.25826964 -0.3731941 0.011216569 0.6680938 -0.487248 0.48733264 -0.31214017 -0.117671564

layers.2.bias f4 [8]
00000000: cee2 73bc 005d 2fbe 3eeb 42be dff9 aa3d
00000010: 5b45 45be 3cad 1a3e b909 09be 363c e33e
-0.014885617 -0.1712532 -0.1903505 0.083484404 -0.19264738 0.15105146 -0.13382615 0.44381875

layers.4.weight f4 [4, 8]
00000000: 7339 273d 8645 433f da44 2ebe c703 343e
00000010: fe31 babf 8925 b8be 9701 d0bc 22d1 d63e
00000020: f759 e53e 904e 42bf 4ef5 3e3f 3ae9 d53e
00000030: cd79 7bbe 547d a6be c832 823f 4e7e 46bd
00000040: 4f0b a63e 8a48 a2be 0a58 1d3f 738d 94be
00000050: cd27 2bbe c7eb 023e f7d1 54be 5938 073f
00000060: 3080 94bd 05f7 dbbe d8c8 9ebd 4fe4 8e3f
00000070: 51ee ad3e f9d7 823e 4a8e 63bf 0ca4 903f
0.040826272 0.7627796 -0.17018452 0.17579566 -1.4546506 -0.35966137 -0.025391383 0.4195643
0.447952 -0.75901127 0.74593055 0.417795 -0.24558182 -0.32517493 1.0171747 -0.048460297
0.32430503 -0.31695968 0.6146246 -0.29014167 -0.16714402 0.12785254 -0.2078322 0.52820355
-0.07251012 -0.42961898 -0.07753152 1.1163424 0.33970883 0.255554 -0.8888899 1.1300063

layers.4.bias f4 [4]
00000000: 5654 ba3e f9ad a5bd ee9a 853e d880 6cbe
0.36392468 -0.08089823 0.26094764 -0.23096025
