DQN/4x4_map/final_weights2024-07-06 16:56:40.697539_2500.pth (torch, 4095 bytes, 6 tensors)

layers.0.weight f4 [12, 16]
-0.49501556 -0.24622756 0.7941719 -0.2333718 -0.41122523 0.14843553 -0.118563406 0.33552483
0.080611475 0.56795067 -0.6071679 0.054310463 0.3709465 -0.34432748 -0.36085835 0.58379906
-0.22904435 -0.3486509 -0.5520875 -0.09177188 0.3006906 0.1355565 0.16181578 -0.46441558
-0.57188684 -0.001829124 0.7128208 0.35329074 -0.35654423 -0.20015931 -0.45143092 -0.29542282
0.21449283 0.3745476 0.31987032 -0.5622229 0.43025815 -0.43190145 0.46033314 0.5182173
0.02245009 0.5823631 -0.52177286 -0.23390129 0.35716802 -0.1622483 -0.16858453 -0.25523174
0.3316795 0.32251975 0.18307005 -0.34413108 -0.49709308 0.06623458 0.16450022 -0.28273964
-0.17134039 0.20486148 0.048781406 0.027629225 -0.15070519 -0.5545582 -0.5757878 -0.29272327
-0.31128204 0.4017849 -0.17826821 -0.23957366 0.5388146 0.21330333 0.62632906 -0.29645732
-0.25013384 0.08639721 -0.40800855 -0.40031037 -0.029577387 -0.22398177 -0.4590699 0.36323422
0.46301216 0.056379125 -0.106622174 -0.5672241 -0.22304977 0.15590122 0.41151047 -0.07741461
-0.24210319 0.35587814 -0.48769325 0.3870304 -0.23757285 0.009372605 -0.12101451 0.07424339
-0.18505798 0.6283893 -0.03830037 0.45737222 0.49201268 -0.29834232 -0.4467313 0.49130765
0.38013086 -0.46757534 -0.05878624 -0.6038766 -0.5012875 0.2616759 -0.07433516 0.12981136
-0.032424472 0.4808586 0.5788235 -0.18997088 -0.08243633 0.14705831 -0.23498468 -0.43299684
0.21334273 -0.024363106 -0.5470091 -0.33448237 0.5905777 1.1852604 0.29738167 0.3594695
0.5752528 -0.08196589 -0.3369444 0.15555944 -0.31732085 -0.41326925 -0.19555137 0.12851202
0.15350232 -0.23785098 -0.3604218 0.082604796 -0.36095265 -0.39869207 0.15431997 -0.102869146
0.3825986 0.5711296 0.2713759 0.42201757 0.1883046 0.009590292 -0.044539347 0.008416518
0.2439272 0.546684 -0.15870188 -0.25885952 -0.14829509 -0.29585198 -0.011893521 0.45710444
0.5650862 0.1891823 -0.4506642 -0.3476409 -0.08128536 -0.11287503 0.35465756 -0.56214046
0.37941304 -0.46716186 -0.3874754 -0.50911576 0.53357214 -0.5798799 0.7297075 -0.020586064
0.1068519 0.2269644 0.032603968 0.08145563 0.4515208 -0.53166795 0.29171124 0.11560306
-0.085777186 0.058105636 0.22491139 -0.29459208 -0.07834762 0.45853463 0.73412585 -0.023005884
00000000: ae72 fdbe 1423 7cbe da4e 4b3f 04f9 6ebe
00000010: 1d8c d2be 7cff 173e 5fd1 f2bd e9c9 ab3e
00000020: a117 a53d 3765 113f 5b6f 1bbf a674 5e3d
00000030: b3ec bd3e b14b b0be 6dc2 b8be db73 153f
00000040: 9a8a 6abe 5f82 b2be 9b55 0dbf e5f2 bbbd
00000050: 1ef4 993e 53cf 0a3e 09b3 253e e1c7 edbe
00000060: 2d67 12bf 38bf efba 6d7b 363f 86e2 b43e
00000070: f78c b6be 90f6 4cbe f421 e7be a941 97be
00000080: 02a4 5b3e b4c4 bf3e 0bc6 a33e d7ed 0fbf
00000090: cc4a dc3e 3022 ddbe c9b0 eb3e e4a9 043f
000000a0: 40e9 b73c c015 153f e892 05bf d283 6fbe
000000b0: bade b63e 6b24 26be 6ca1 2cbe bcad 82be
000000c0: e5d1 a93e 4f21 a53e b776 3b3e f331 b0be
000000d0: fc82 febe ffa5 873d bf72 283e 40c3 90be
000000e0: db73 2fbe 35c7 513e 03cf 473d af56 e23c
000000f0: 7652 1abe 87f7 0dbf d466 13bf d3df 95be
00000100: 5c60 9fbe c0b6 cd3e f18b 36be cc52 75be
00000110: c1ef 093f 306c 5a3e 1a57 203f 41c9 97be
00000120: 8b11 80be 05f1 b03d 7fe6 d0be 7bf5 ccbe
00000130: 474c f2bc 7a5b 65be 360b ebbe d6f9 b93e
00000140: ee0f ed3e cced 663d ba5c dabd 9935 11bf
00000150: 2967 64be 92a4 1f3e 80b1 d23e 8d8b 9ebd
00000160: e6e9 77be a935 b63e eeb2 f9be d928 c63e
00000170: 4c46 73be 8e8f 193c 75d6 f7bd eb0c 983d
00000180: d77f 3dbe 1fde 203f d9e0 1cbd b12c ea3e
00000190: 16e9 fb3e 53c0 98be f7b9 e4be ad8c fb3e
000001a0: 83a0 c23e 0966 efbe d7c9 70bd a897 1abf
000001b0: 6154 00bf 62fa 853e 083d 98bd 45ed 043e
000001c0: 86cf 04bd 1933 f63e c72d 143f ba87 42be
000001d0: 61d4 a8bd 7496 163e d39f 70be c3b1 ddbe
000001e0: 8476 5a3e 2395 c7bc ca08 0cbf 4641 abbe
000001f0: 1a30 173f 9db6 973f 6942 983e 630c b83e
00000200: c443 133f bcdd a7bd fa83 acbe f94a 1f3e
00000210: e177 a2be 0798 d3be 9e3e 48be a898 033e
00000220: b62f 1d3e 358f 73be 3589 b8be b42c a93d
00000230: c9ce b8be 5e21 ccbe 0e06 1e3e 0fad d2bd
00000240: f7e3 c33e 8d35 123f c8f1 8a3e b012 d83e
00000250: ecd2 403e 9a20 1d3c e46e 36bd 6fe5 093c
00000260: 0dc8 793e 7cf3 0b3f bf82 22be 3c89 84be
00000270: abda 17be e979 97be 0bdd 42bc 9809 ea3e
00000280: 7da9 103f 01b9 413e 75bd e6be fdfd b1be
00000290: f078 a6bd 062b e7bd ad95 b53e 70e8 0fbf
000002a0: 6d42 c23e d72f efbe 2d63 c6be 6955 02bf
000002b0: 2f98 083f 0273 14bf 1cce 3a3f 1ba4 a8bc
000002c0: 2bd5 da3d 5b69 683e bd8b 053d 36d2 a63d
000002d0: bc2d e73e 641b 08bf 2d5b 953e 4cc1 ec3d
000002e0: f3ab afbd 2d00 6e3d 2c4f 663e c6d4 96be
000002f0: b874 a0bd 0dc5 ea3e acef 3b3f d676 bcbc

layers.0.bias f4 [12]
0.32440302 0.1730255 0.07365303 -0.27481863 0.030780355 -0.062102966 -0.02304466 0.54557276
-0.20410007 0.00747267 0.33806172 0.14428316
00000000: 2718 a63e 992d 313e 66d7 963d 07b5 8cbe
00000010: 1527 fc3c ae5f 7ebd 28c8 bcbc a8aa 0b3f
00000020: 9cff 50be 4ddd f43b 6d16 ad3e f7be 133e

layers.2.weight f4 [8, 12]
-0.6222087 -0.3441202 -0.63050413 0.6537461 -0.6639756 0.10462376 -0.23865743 0.7786522
0.93275154 0.112226576 0.421749 0.5609456 0.5220365 -0.28125435 -0.3191654 0.24678403
-0.2207819 0.22861306 -0.19155815 -0.6374948 0.18860188 -0.0068326173 0.18286088 0.55871326
0.46733862 0.54554206 0.022397216 -0.6237059 -0.49605465 -0.43923616 -0.6383716 -0.36984956
-0.6509397 -0.66794103 -0.42253488 -0.8299377 -0.5228579 0.66106826 0.5891408 -0.064472705
-0.16029121 0.43772992 -0.30632135 -0.33575588 0.78553826 -0.5311321 0.42818564 0.8668341
0.043781884 0.22558653 -0.47037455 0.014230505 0.028091263 0.17609547 0.41619578 0.76769274
-0.5258332 -0.11041234 -0.35819232 -0.3390894 -0.14398092 -0.6040417 0.40284768 0.0066225166
-0.36220777 0.38796216 -0.67686665 -0.38716638 -0.13775764 -0.6845632 -0.44964096 -0.10598033
0.6451101 0.57024544 0.54583913 -0.41913235 -0.45821974 0.7184995 0.15185504 0.22712998
0.059303317 -0.4587028 -0.48866796 0.6499854 0.3990958 0.0684634 -0.34753856 -0.18243822
-0.2832308 -0.41791582 -0.00038523698 0.65158767 -0.4573848 0.50487334 -0.33117655 -0.11550519
00000000: 1249 1fbf 8630 b0be b868 21bf e85b 273f
00000010: 4efa 29bf fb44 d63d 9d62 74be c055 473f
00000020: cec8 6e3f 0cd7 e53d 7cef d73e 219a 0f3f
00000030: 2fa4 053f 9200 90be a669 a3be f4b4 7c3e
00000040: a714 62be 8b19 6a3e d227 44be dc32 23bf
00000050: da20 413e 26e4 dfbb e23f 3b3e d507 0f3f
00000060: 0247 ef3e a5a8 0b3f 5e7a b73c 31ab 1fbf
00000070: e0fa fdbe 90e3 e0be 526c 23bf ec5c bdbe
00000080: fca3 26bf 2ffe 2abf 7e56 d8be cc76 54bf
00000090: 04da 05bf c53b 293f eed1 163f 440a 84bd
000000a0: 6123 24be 231e e03e 27d6 9cbe 32e8 abbe
000000b0: 0919 493f 46f8 07bf 263b db3e d7e8 5d3f
000000c0: a254 333d 2800 673e efd4 f0be 1027 693c
000000d0: a61f e63c 5f52 343e 9d17 d53e 8387 443f
000000e0: 019d 06bf dd1f e2bd fc64 b7be 209d adbe
000000f0: bc6f 13be 7aa2 1abf 0d42 ce3e b201 d93b
00000100: 4c73 b9be faa2 c63e 2247 2dbf ac3a c6be
00000110: 5710 0dbe 893f 2fbf 5737 e6be 370c d9bd
00000120: ef25 253f 9bfb 113f 1dbc 0b3f 8498 d6be
00000130: c79b eabe 95ef 373f e37f 1b3e c394 683e
00000140: 09e8 723d 18db eabe b032 fabe 7165 263f
00000150: 4956 cc3e 8a36 8c3d 93f0 b1be 16d1 3abe
00000160: a103 91be 10f9 d5be a2f9 c9b9 73ce 263f
00000170: 572e eabe 613f 013f f98f a9be fc8d ecbd

layers.2.bias f4 [8]
0.0864062 -0.19278716 -0.20892715 0.1141236 -0.13768329 0.15105146 -0.12701528 0.48921055
00000000: bcf5 b03d ff69 45be 00f1 55be a2b9 e93d
00000010: d9fc 0cbe 3cad 1a3e 4b10 02be ce79 fa3e

layers.4.weight f4 [4, 8]
-0.021783475 0.75746524 -0.17018452 0.19862613 -1.1839514 -0.35966137 -0.29563725 0.8099422
0.2876445 -0.7581054 0.7272152 0.4324762 -0.09816572 -0.32517493 0.9680091 -0.08113005
0.53285295 -0.31701058 0.5957976 -0.4460457 -0.87868047 0.12785254 0.127732 0.3388065
-0.30018863 -0.4294749 -0.07786814 1.0541841 0.5587214 0.255554 -0.8153606 0.9538642
00000000: 4273 b2bc 3ee9 413f da44 2ebe a664 4b3e
00000010: b88b 97bf 8925 b8be c45d 97be 5f58 4f3f
00000020: 2446 933e 3213 42bf c62a 3a3f 856d dd3e
00000030: 1c0b c9bd 547d a6be 72cf 773f 8327 a6bd
00000040: 0d69 083f 364f a2be 3186 183f 1a60 e4be
00000050: 34f1 60bf c7eb 023e 2dcc 023e 0c78 ad3e
00000060: 53b2 99be 22e4 dbbe 5579 9fbd 81ef 863f
00000070: 5e08 0f3f f9d7 823e 79bb 50bf 7230 743f

layers.4.bias f4 [4]
0.27332133 -0.074720755 0.354816 -0.20439109
00000000: c6f0 8b3e 3207 99bd 71aa b53e e64b 51be
