DQN/4x4_map/final_weights2024-07-06 16:56:40.697539_500.pth (torch, 4087 bytes, 6 tensors)

layers.0.weight f4 [12, 16]
00000000: ae72 fdbe c5e2 a7be 8597 1c3f 1e71 97be
00000010: 1d8c d2be 7cff 173e a63c db3d e9c9 ab3e
00000020: 17cc 483e 1108 8c3e 5b6f 1bbf a674 5e3d
00000030: b3ec bd3e 6096 b2bd 6dc2 b8be db73 153f
00000040: 9a8a 6abe 5f82 b2be 9b55 0dbf 5ded debc
00000050: 9066 363e 53cf 0a3e 7e13 503e e1c7 edbe
00000060: 2d67 12bf cac5 f83c 6808 023f 86e2 b43e
00000070: f78c b6be 0a63 12be f421 e7be a941 97be
00000080: c48e 823e eab1 d43e a010 b63e d7ed 0fbf
00000090: 6c3a ac3e 3022 ddbe 4f66 b23e e4a9 043f
000000a0: 3126 333e bf46 1f3f e892 05bf d283 6fbe
000000b0: bade b63e 6b24 26be 6ca1 2cbe bcad 82be
000000c0: e898 a23e 7287 893e b776 3b3e f331 b0be
000000d0: fc82 febe ffa5 873d bf72 283e 40c3 90be
000000e0: db73 2fbe ace5 c03e 03cf 473d af56 e23c
000000f0: 7652 1abe 87f7 0dbf d466 13bf d3df 95be
00000100: 5c60 9fbe c441 a13e f18b 36be cc52 75be
00000110: 6117 2e3f 306c 5a3e 903f c83e 41c9 97be
00000120: 8b11 80be 2262 733e 7fe6 d0be 7bf5 ccbe
00000130: 474c f2bc 7a5b 65be 360b ebbe d6f9 b93e
00000140: e282 d13e 9292 9e3d ba5c dabd 9935 11bf
00000150: 2967 64be 92a4 1f3e fd10 c73e 8d8b 9ebd
00000160: e6e9 77be cba5 aa3e eeb2 f9be d928 c63e
00000170: 4c46 73be 8e8f 193c 75d6 f7bd eb0c 983d
00000180: d77f 3dbe 054d 0a3f 8a80 e73a 14aa 063f
00000190: 7dbc 0f3f 53c0 98be f7b9 e4be ad8c fb3e
000001a0: 4973 df3e 0966 efbe c09c cfbc a897 1abf
000001b0: 6154 00bf 1af0 ae3e 0501 8fbd 45ed 043e
000001c0: e343 8fbe e6ea f53e 6b14 d23e 1603 b9be
000001d0: 762b e4bd 7496 163e 21b3 943d c3b1 ddbe
000001e0: 1c1b 273d 5759 9bbe aa43 02bf 4641 abbe
000001f0: 1a30 173f 9c3b 433f c5fe 663f 630c b83e
00000200: 5e0f bb3e bcdd a7bd fa83 acbe 66f2 8c3e
00000210: e177 a2be 0798 d3be 9e3e 48be a898 033e
00000220: c97d 8b3e 358f 73be 3589 b8be b42c a93d
00000230: c9ce b8be 5e21 ccbe d36b 8f3e 0fad d2bd
00000240: 64ff f03e b7f1 133f 7e77 8c3e a0e5 843e
00000250: 78cd 603e 9a20 1d3c e46e 36bd 6fe5 093c
00000260: 59f1 1d3e 0c6f 0c3f bf82 22be 3c89 84be
00000270: abda 17be e979 97be 4c5d a13e 9809 ea3e
00000280: a9cb c13e 87c7 7c3e 75bd e6be 8c46 a8be
00000290: a03c 60bd 062b e7bd 7a10 f83d 70e8 0fbf
000002a0: 0351 d13e d72f efbe 2d63 c6be 6955 02bf
000002b0: 2f98 083f 0273 14bf a1f4 093f 1ba4 a8bc
000002c0: 53c6 d3bd ada3 ae3e f9fc 79bb 81e1 253e
000002d0: 0027 af3e 641b 08bf 936d aa3e 4cc1 ec3d
000002e0: e7d3 dd3c 66ec 943d 9513 953e c6d4 96be
000002f0: b874 a0bd 7162 0c3f 5214 1f3f d676 bcbc
-0.49501556 -0.327902 0.611687 -0.2957849 -0.41122523 0.14843553 0.10704927 0.33552483
0.19609104 0.27349904 -0.6071679 0.054310463 0.3709465 -0.08720088 -0.36085835 0.58379906
-0.22904435 -0.3486509 -0.5520875 -0.027212793 0.17812562 0.1355565 0.20319936 -0.46441558
-0.57188684 0.03036775 0.50794077 0.35329074 -0.35654423 -0.14295593 -0.45143092 -0.29542282
0.25499547 0.41541988 0.3555956 -0.5622229 0.33638322 -0.43190145 0.3484368 0.5182173
0.17495038 0.62217325 -0.52177286 -0.23390129 0.35716802 -0.1622483 -0.16858453 -0.25523174
0.31757283 0.2686115 0.18307005 -0.34413108 -0.49709308 0.06623458 0.16450022 -0.28273964
-0.17134039 0.37675226 0.048781406 0.027629225 -0.15070519 -0.5545582 -0.5757878 -0.29272327
-0.31128204 0.31495488 -0.17826821 -0.23957366 0.68004423 0.21330333 0.39110994 -0.29645732
-0.25013384 0.23767903 -0.40800855 -0.40031037 -0.029577387 -0.22398177 -0.4590699 0.36323422
0.40920168 0.077428 -0.106622174 -0.5672241 -0.22304977 0.15590122 0.3888015 -0.07741461
-0.24210319 0.33329615 -0.48769325 0.3870304 -0.23757285 0.009372605 -0.12101451 0.07424339
-0.18505798 0.5402377 0.0017662209 0.5260327 0.56146985 -0.29834232 -0.4467313 0.49130765
0.43642643 -0.46757534 -0.025343299 -0.6038766 -0.5012875 0.34167558 -0.06982616 0.12981136
-0.2798148 0.48030776 0.41031203 -0.36135167 -0.11141102 0.14705831 0.072607286 -0.43299684
0.040797338 -0.30341598 -0.508845 -0.33448237 0.5905777 0.7626283 0.902325 0.3594695
0.36535162 -0.08196589 -0.3369444 0.27528685 -0.31732085 -0.41326925 -0.19555137 0.12851202
0.27244404 -0.23785098 -0.3604218 0.082604796 -0.36095265 -0.39869207 0.2801195 -0.102869146
0.47069848 0.577907 0.27434915 0.2595644 0.2195338 0.009590292 -0.044539347 0.008416518
0.15424098 0.54856944 -0.15870188 -0.25885952 -0.14829509 -0.29585198 0.31516492 0.45710444
0.37850693 0.24685489 -0.4506642 -0.32866323 -0.054745317 -0.11287503 0.12112518 -0.56214046
0.4088212 -0.46716186 -0.3874754 -0.50911576 0.53357214 -0.5798799 0.538889 -0.020586064
-0.10340562 0.3410925 -0.0038145168 0.16199304 0.34209442 -0.53166795 0.33286723 0.11560306
0.027078582 0.07271652 0.29116502 -0.29459208 -0.07834762 0.5483771 0.6214038 -0.023005884

layers.0.bias f4 [12]
00000000: ffe8 ac3d bfe1 173e c0a7 233e dfc1 49be
00000010: c9de e23d b96c a6bd 6ffb 8f3d 5e11 a63e
00000020: 2d0e a6be e480 0cbb d9fb 2b3e bdb1 d83d
0.08442878 0.14832209 0.1598196 -0.19702862 0.11077649 -0.08126206 0.07030379 0.32435125
-0.3243269 -0.002143913 0.16795291 0.10580776

layers.2.weight f4 [8, 12]
00000000: 2689 33bf d191 d03d ec52 4bbf 6fc2 ed3e
00000010: ebe6 18bf 83ff 23be c7da d0be 1c06 023f
00000020: 92d4 163f 2535 eebb 6b3e f73e a9bf 363f
00000030: 2fa4 053f 9200 90be 6ebf 9abe e33b 823e
00000040: a714 62be 8c38 753e d227 44be e70d 02bf
00000050: 3d83 583e 64c6 a13b 05f2 613e 91cd 2a3f
00000060: 0247 ef3e 9d69 103f 5e7a b73c 31ab 1fbf
00000070: e0fa fdbe 90e3 e0be 526c 23bf ec5c bdbe
00000080: fca3 26bf 2ffe 2abf 7e56 d8be f8b5 4fbf
00000090: bf8a b4be ce1b 103f c1c9 2a3f 4ad3 04be
000000a0: 3007 32be 4eba ec3e 1ab1 b7be 68a3 babe
000000b0: 437f fa3e cc72 f8be 813b 4c3e 63b0 383f
000000c0: 649a 113d 0391 4d3e 90c9 febe 26d6 1fbc
000000d0: 8240 1f3d a1b6 313e 751e ab3e 0cc9 273f
000000e0: 062c 0abf ba1a 80bd d33c bdbe 551c fbbe
000000f0: bc6f 13be 7aa2 1abf 0d42 ce3e b201 d93b
00000100: 4c73 b9be faa2 c63e 2247 2dbf ac3a c6be
00000110: 5710 0dbe 893f 2fbf 5737 e6be 370c d9bd
00000120: 22e9 043f ebf3 043f 6299 d43e 86b7 f5be
00000130: 8865 07bf 883e 1c3f e380 423e d330 323e
00000140: fe84 063e 3abc 1fbf bd23 d6be 7d54 263f
00000150: 82e3 2c3e cd35 18bd e3ec e3be f4cb a5be
00000160: f54d 5bbe f993 f9be b558 d3bd e7c3 183f
00000170: f778 2ebf de45 cb3e acd5 91be b8c1 14be
-0.70131147 0.10184062 -0.79423404 0.46437404 -0.5972735 -0.16015439 -0.40791914 0.5079057
0.58918107 -0.007269519 0.4828981 0.713862 0.5220365 -0.28125435 -0.30224174 0.25436315
-0.2207819 0.23947352 -0.19155815 -0.50802463 0.21143813 0.00493698 0.2206498 0.6671992
0.46733862 0.56411153 0.022397216 -0.6237059 -0.49605465 -0.43923616 -0.6383716 -0.36984956
-0.6509397 -0.66794103 -0.42253488 -0.8113704 -0.35262105 0.56292427 0.667141 -0.12971225
-0.17385554 0.4623589 -0.35877305 -0.36452794 0.48925218 -0.48525083 0.19944574 0.72144145
0.03554763 0.20074849 -0.49763155 -0.009755647 0.03887988 0.17354824 0.33421674 0.6554115
-0.53973424 -0.06255098 -0.36960468 -0.49045053 -0.14398092 -0.6040417 0.40284768 0.0066225166
-0.36220777 0.38796216 -0.67686665 -0.38716638 -0.13775764 -0.6845632 -0.44964096 -0.10598033
0.5191823 0.5193469 0.41523272 -0.4799158 -0.528893 0.61032915 0.18994479 0.17401437
0.1313667 -0.62396586 -0.4182414 0.6497267 0.16883662 -0.037160683 -0.44516668 -0.32382166
-0.21416457 -0.48745707 -0.10319654 0.59673923 -0.6815333 0.39701742 -0.2848333 -0.14527023

layers.2.bias f4 [8]
00000000: 494a 833b fb5b 28be 3eeb 42be 3130 403d
00000010: 4edb 57be 3cad 1a3e a389 47be c572 ae3e
0.004006658 -0.16441338 -0.1903505 0.04692096 -0.21079752 0.15105146 -0.19486098 0.34071937

layers.4.weight f4 [4, 8]
00000000: 34fa 893e 8c49 433f da44 2ebe 039d 17bd
00000010: 919c 77bf 8925 b8be 4d3c f0be 6bc4 333e
00000020: 5774 da3e 644f 42bf 4ef5 3e3f 8d42 fc3e
00000030: 29f2 14bf 547d a6be 7e66 5d3f 5bc8 253e
00000040: bd6b b63e 7e48 a2be 0a58 1d3f efb3 0c3e
00000050: 86fe 7e3f c7eb 023e 997a d4be 877b c53e
00000060: 5495 b1bd fcf6 dbbe d8c8 9ebd 2b33 723f
00000070: 5f2e 01bf f9d7 823e 6b03 32bf 0a9c 8d3f
0.26948702 0.762841 -0.17018452 -0.037014972 -0.96723276 -0.35966137 -0.46921006 0.17555396
0.42666885 -0.7590239 0.74593055 0.49269524 -0.5818201 -0.32517493 0.86484516 0.16189711
0.35629073 -0.31695932 0.6146246 0.13740514 0.9960712 0.12785254 -0.41499785 0.38570806
-0.0867106 -0.42961872 -0.07753152 0.94609326 -0.5046138 0.255554 -0.69536465 1.1063244

layers.4.bias f4 [4]
00000000: 9eea 503e 5547 313d e2d5 043e da7b 21be
0.20402 0.04328092 0.12972215 -0.15769902
