DQN/4x4_map/final_weights2024-07-31 15:26:39.682159_1000.pth (torch, 4095 bytes, 6 tensors)

layers.0.weight f4 [12, 16]
-0.49501556 -0.327902 0.5715786 -0.2957849 -0.41122523 0.14843553 0.16342065 0.33552483
0.45786327 0.33433235 -0.6071679 0.054310463 0.3709465 -0.05985091 -0.36085835 0.58379906
-0.22904435 -0.3486509 -0.5520875 0.024872256 0.22076593 0.1355565 0.1137373 -0.46441558
-0.57188684 0.013551326 0.541086 0.35329074 -0.35654423 -0.083141655 -0.45143092 -0.29542282
0.1621303 0.3378622 0.4887438 -0.5622229 0.3791678 -0.43190145 0.22476397 0.5182173
0.008599165 0.5550092 -0.52177286 -0.23390129 0.35716802 -0.13341627 -0.12535278 -0.25523174
0.34191266 0.2946154 0.21066995 -0.34413108 -0.49709308 0.06623458 0.18637422 -0.28273964
-0.17134039 0.4118757 0.048781406 0.027629225 -0.15070519 -0.5545582 -0.5757878 -0.29272327
-0.31128204 0.19489808 -0.17826821 -0.23957366 0.62142897 0.21330333 0.44166717 -0.29645732
-0.25013384 0.23023088 -0.40800855 -0.40031037 -0.029577387 -0.22398177 -0.4590699 0.36323422
0.4397187 0.098462 -0.106622174 -0.5672241 -0.22304977 0.15590122 0.28254554 -0.07741461
-0.24210319 0.33483666 -0.48769325 0.3870304 -0.23757285 0.009372605 -0.12101451 0.07424339
-0.18505798 0.44714132 -0.013051088 0.4772278 0.5690002 -0.29834232 -0.4467313 0.49130765
0.47907797 -0.46757534 -0.048034385 -0.6038766 -0.5012875 0.11695479 0.16292009 0.12981136
-0.16666616 0.5660136 0.09288904 -0.36135167 -0.037746277 0.14705831 0.21360509 -0.43299684
0.23233609 -0.31284985 -0.508845 -0.33448237 0.5905777 0.5239921 0.5485738 0.3594695
0.3862419 -0.08196589 -0.3369444 0.30561095 -0.31732085 -0.41326925 -0.19555137 0.12851202
0.3128346 -0.23785098 -0.3604218 0.082604796 -0.36095265 -0.39869207 0.31959027 -0.102869146
0.54618984 0.59486985 0.21062748 0.21300843 0.18269911 0.009590292 -0.044539347 0.008416518
0.23288189 0.5735408 -0.15870188 -0.25885952 -0.14829509 -0.29585198 0.103961416 0.45710444
0.41622105 0.2768668 -0.4506642 -0.32866323 -0.1149129 -0.11287503 0.0534149 -0.56214046
0.19096036 -0.46716186 -0.3874754 -0.50911576 0.53357214 -0.5798799 0.46206576 -0.020586064
-0.081677996 0.37589735 -0.060457487 0.38145968 0.39455113 -0.53166795 0.22954457 0.11560306
0.12220472 0.08129088 0.16460918 -0.29459208 -0.07834762 0.57808614 0.41181698 -0.023005884
00000000: ae72 fdbe c5e2 a7be fa52 123f 1e71 97be
00000010: 1d8c d2be 7cff 173e be57 273e e9c9 ab3e
00000020: 0e6d ea3e 9c2d ab3e 5b6f 1bbf a674 5e3d
00000030: b3ec bd3e 3a26 75bd 6dc2 b8be db73 153f
00000040: 9a8a 6abe 5f82 b2be 9b55 0dbf e7c0 cb3c
00000050: 7710 623e 53cf 0a3e 1aef e83d e1c7 edbe
00000060: 2d67 12bf 6106 5e3c 9d84 0a3f 86e2 b43e
00000070: f78c b6be 2c46 aabd f421 e7be a941 97be
00000080: 7c05 263e 46fc ac3e a13c fa3e d7ed 0fbf
00000090: 4822 c23e 3022 ddbe 8728 663e e4a9 043f
000000a0: 83e3 0c3c 1515 0e3f e892 05bf d283 6fbe
000000b0: bade b63e 469e 08be 7b5c 00be bcad 82be
000000c0: 2d0f af3e d4d7 963e ddb9 573e f331 b0be
000000d0: fc82 febe ffa5 873d e2d8 3e3e 40c3 90be
000000e0: db73 2fbe 5fe1 d23e 03cf 473d af56 e23c
000000f0: 7652 1abe 87f7 0dbf d466 13bf d3df 95be
00000100: 5c60 9fbe 5d93 473e f18b 36be cc52 75be
00000110: f815 1f3f 306c 5a3e 3322 e23e 41c9 97be
00000120: 8b11 80be a5c1 6b3e 7fe6 d0be 7bf5 ccbe
00000130: 474c f2bc 7a5b 65be 360b ebbe d6f9 b93e
00000140: cf22 e13e 72a6 c93d ba5c dabd 9935 11bf
00000150: 2967 64be 92a4 1f3e cfa9 903e 8d8b 9ebd
00000160: e6e9 77be b66f ab3e eeb2 f9be d928 c63e
00000170: 4c46 73be 8e8f 193c 75d6 f7bd eb0c 983d
00000180: d77f 3dbe b5ef e43e 3bd4 55bc 3457 f43e
00000190: ffa9 113f 53c0 98be f7b9 e4be ad8c fb3e
000001a0: b549 f53e 0966 efbe b4bf 44bd a897 1abf
000001b0: 6154 00bf fe85 ef3d 86d4 263e 45ed 043e
000001c0: 89aa 2abe 44e6 103f 9c3c be3d 1603 b9be
000001d0: d79b 1abd 7496 163e 4bbb 5a3e c3b1 ddbe
000001e0: 83e9 6d3e db2d a0be aa43 02bf 4641 abbe
000001f0: 1a30 173f 5924 063f 556f 0c3f 630c b83e
00000200: 80c1 c53e bcdd a7bd fa83 acbe 0a79 9c3e
00000210: e177 a2be 0798 d3be 9e3e 48be a898 033e
00000220: db2b a03e 358f 73be 3589 b8be b42c a93d
00000230: c9ce b8be 5e21 ccbe 56a1 a33e 0fad d2bd
00000240: 19d3 0b3f 6449 183f bbae 573e e21e 5a3e
00000250: 7a15 3b3e 9a20 1d3c e46e 36bd 6fe5 093c
00000260: 9778 6e3e 92d3 123f bf82 22be 3c89 84be
00000270: abda 17be e979 97be b9e9 d43d 9809 ea3e
00000280: ed1a d53e 7cc1 8d3e 75bd e6be 8c46 a8be
00000290: 7457 ebbd 062b e7bd 95c9 5a3d 70e8 0fbf
000002a0: 1d8b 433e d72f efbe 2d63 c6be 6955 02bf
000002b0: 2f98 083f 0273 14bf e293 ec3e 1ba4 a8bc
000002c0: cb46 a7bd 9e75 c03e 45a2 77bd af4e c33e
000002d0: 9b02 ca3e 641b 08bf bb0d 6b3e 4cc1 ec3d
000002e0: 7846 fa3d d57b a63d 4f8f 283e c6d4 96be
000002f0: b874 a0bd 74fd 133f add9 d23e d676 bcbc

layers.0.bias f4 [12]
0.11702077 0.13623318 -0.02459325 -0.1242598 0.055597063 -0.081138216 0.041472718 0.07604858
-0.30582556 -0.026865546 0.16675834 -0.004751798
00000000: 96a8 ef3d b680 0b3e c977 c9bc ec7b febd
00000010: bfb9 633d cb2b a6bd 4cdf 293d 5cbf 9b3d
00000020: 2b95 9cbe 2215 dcbc b3c2 2a3e f9b4 9bbb

layers.2.weight f4 [8, 12]
-0.66501623 0.031519122 -0.4885359 0.5633777 -0.43102884 -0.06625149 -0.16045135 0.12168152
0.66018933 0.044704087 0.38307136 0.5465031 0.5609263 -0.24563722 -0.18756302 0.28090125
-0.19557762 0.24929672 -0.16001408 -0.48425132 0.2558662 0.010472439 0.19012138 0.698362
0.48013273 0.66244847 0.03607285 -0.60859406 -0.49605465 -0.43923616 -0.6232381 -0.35504302
-0.6509397 -0.652904 -0.42253488 -0.6990811 -0.43389842 0.27034068 0.5922802 -0.21030872
-0.20170723 0.37767008 -0.34492806 -0.33413035 0.43566936 -0.6157612 0.08698701 0.62725395
0.121259265 0.1922933 -0.41181272 -0.009755647 0.03887988 0.17354824 0.2747435 0.61442477
-0.53973424 0.021195734 -0.3532962 -0.55936664 -0.0660936 -0.6232358 0.48609906 0.079606965
-0.3822982 0.36826974 -0.66950446 -0.27523866 -0.13775764 -0.60484344 -0.44964096 -0.115910314
0.5027852 0.63394207 0.40002212 -0.42732793 -0.5186159 0.61360526 0.19243039 0.0019993456
0.09535412 -0.5834558 -0.24607763 0.63203704 -0.17427495 -0.03534406 -0.58713275 -0.39556056
-0.014438836 -0.43922603 -0.08741521 0.28878415 -0.6916758 0.21001926 -0.46754476 -0.34409237
00000000: 813e 2abf 321a 013d 6121 fabe 8539 103f
00000010: d0af dcbe dcae 87bd 5c4d 24be 2934 f93d
00000020: 2b02 293f a21b 373d ee21 c43e a1e7 0b3f
00000030: de98 0f3f 5388 7bbe 8510 40be 4ad2 8f3e
00000040: 8045 48be a447 7f3e bbda 23be caef f7be
00000050: e500 833e 9894 2b3c 2eaf 423e dac7 323f
00000060: f5d3 f53e 3996 293f 20c1 133d d2cc 1bbf
00000070: e0fa fdbe 90e3 e0be 888c 1fbf 33c8 b5be
00000080: fca3 26bf b724 27bf 7e56 d8be fbf6 32bf
00000090: ef27 debe 186a 8a3e ad9f 173f 2b5b 57be
000000a0: 578c 4ebe f95d c13e 699a b0be 2213 abbe
000000b0: 0e10 df3e 87a2 1dbf 3f26 b23d b793 203f
000000c0: c756 f83d 89e8 443e 1ed9 d2be 26d6 1fbc
000000d0: 8240 1f3d a1b6 313e 2eab 8c3e f14a 1d3f
000000e0: 062c 0abf ada2 ad3c 3de3 b4be a732 0fbf
000000f0: 155c 87bd 628c 1fbf fae1 f83e fa08 a33d
00000100: 97bc c3be da8d bc3e a564 2bbf 15ec 8cbe
00000110: 5710 0dbe 05d7 1abf 5737 e6be 6362 edbd
00000120: 88b6 003f 074a 223f b3cf cc3e baca dabe
00000130: 03c4 04bf 3c15 1d3f 790c 453e 7407 033b
00000140: 0549 c33d 5c5d 15bf c6fb 7bbe 2ecd 213f
00000150: 2275 32be efc4 10bd 554e 16bf ea86 cabe
00000160: de90 6cbc 3ce2 e0be bf06 b3bd 84db 933e
00000170: aa11 31bf 4a0f 573e 0762 efbe e02c b0be

layers.2.bias f4 [8]
-0.034167353 -0.27320075 -0.114287354 -0.13516845 -0.23493172 0.22705668 -0.2728849 0.07820342
00000000: 11f3 0bbd f8e0 8bbe 7d0f eabd 9969 0abe
00000010: f191 70be 8c81 683e 92b7 8bbe 1d29 a03d

layers.4.weight f4 [4, 8]
0.30272192 0.6837432 -0.23392323 -0.35052732 -0.7830912 -0.4392782 -0.733426 -0.19818293
0.20736876 -0.7939705 0.75420654 0.5404901 -0.84779197 -0.41095325 0.27869254 -0.17792268
-0.021387625 -0.35845074 0.69506764 -0.48156297 0.71817476 0.055479087 0.18622173 0.6756225
-0.03065804 -0.44389898 -0.13807231 0.70948917 -0.64257985 0.20278123 -0.8161144 0.45412478
00000000: 5efe 9a3e cb09 2f3f 9289 6fbe 5178 b3be
00000010: aa78 48bf 12e9 e0be cec1 3bbf 77f0 4abe
00000020: 7a58 543e a741 4bbf ae13 413f 8f5d 0a3f
00000030: e508 59bf 7768 d2be cab0 8e3e 5d31 36be
00000040: 1a35 afbc db86 b7be f4ef 313f 6c8f f6be
00000050: 4dda 373f 0a3e 633d e9b0 3e3e 99f5 2c3f
00000060: 9226 fbbc ba46 e3be d462 0dbe 15a1 353f
00000070: 1d80 24bf e2a5 4f3e e0ec 50bf 0b83 e83e

layers.4.bias f4 [4]
-0.014314652 -0.0091903 0.039015044 0.050947435
00000000: 0188 6abc e992 16bc 3dce 1f3d 42ae 503d
