DQN/4x4_map/final_weights2024-07-31 15:26:39.682159_2500.pth (torch, 4095 bytes, 6 tensors)

layers.0.weight f4 [12, 16]
0	0xbefd72ae	-0.49501556
1	0xbea7e2c5	-0.327902
2	0x3f11bdd9	0.5693031
3	0xbe97711e	-0.2957849
4	0xbed28c1d	-0.41122523
5	0x3e17ff7c	0.14843553
6	0x3e270e81	0.16314127
7	0x3eabc9e9	0.33552483
8	0x3eea6d0e	0.45786327
9	0x3eab46f2	0.33452564
10	0xbf1b6f5b	-0.6071679
11	0x3d5e74a6	0.054310463
12	0x3ebdecb3	0.3709465
13	0xbd779dd0	-0.060453236
14	0xbeb8c26d	-0.36085835
15	0x3f1573db	0.58379906
16	0xbe6a8a9a	-0.22904435
17	0xbeb2825f	-0.3486509
18	0xbf0d559b	-0.5520875
19	0x3cc47102	0.023979668
20	0x3e636794	0.2220748
21	0x3e0acf53	0.1355565
22	0x3de83715	0.11338631
23	0xbeedc7e1	-0.46441558
24	0xbf12672d	-0.57188684
25	0x3c794820	0.01521495
26	0x3f03ed6a	0.5153414
27	0x3eb4e286	0.35329074
28	0xbeb68cf7	-0.35654423
29	0xbdabc38c	-0.08386907
30	0xbee721f4	-0.45143092
31	0xbe9741a9	-0.29542282
32	0x3e2d4435	0.1692055
33	0x3ead2f0f	0.33824965
34	0x3ef873b3	0.48525771
35	0xbf0fedd7	-0.5622229
36	0x3ec28e90	0.37999392
37	0xbedd2230	-0.43190145
38	0x3e65ee31	0.22454144
39	0x3f04a9e4	0.5182173
40	0x3c0ce383	0.008599165
41	0x3f0dc0e2	0.5537244
42	0xbf0592e8	-0.52177286
43	0xbe6f83d2	-0.23390129
44	0x3eb6deba	0.35716802
45	0xbe089e46	-0.13341627
46	0xbe005c7b	-0.12535278
47	0xbe82adbc	-0.25523174
48	0x3eaae7a8	0.33379865
49	0x3e969e0c	0.29417455
50	0x3e59a63a	0.21254817
51	0xbeb031f3	-0.34413108
52	0xbefe82fc	-0.49709308
53	0x3d87a5ff	0.06623458
54	0x3e3f16d1	0.18661048
55	0xbe90c340	-0.28273964
56	0xbe2f73db	-0.17134039
57	0x3ed2c5ee	0.41166633
58	0x3d47cf03	0.048781406
59	0x3ce256af	0.027629225
60	0xbe1a5276	-0.15070519
61	0xbf0df787	-0.5545582
62	0xbf1366d4	-0.5757878
63	0xbe95dfd3	-0.29272327
64	0xbe9f605c	-0.31128204
65	0x3e47ec0d	0.1952364
66	0xbe368bf1	-0.17826821
67	0xbe7552cc	-0.23957366
68	0x3f1ecfd2	0.6203586
69	0x3e5a6c30	0.21330333
70	0x3ee24792	0.4419523
71	0xbe97c941	-0.29645732
72	0xbe80118b	-0.25013384
73	0x3e6ccd30	0.23125148
74	0xbed0e67f	-0.40800855
75	0xbeccf57b	-0.40031037
76	0xbcf24c47	-0.029577387
77	0xbe655b7a	-0.22398177
78	0xbeeb0b36	-0.4590699
79	0x3eb9f9d6	0.36323422
80	0x3ee1a55b	0.4407147
81	0x3dc9c14a	0.0985132
82	0xbdda5cba	-0.106622174
83	0xbf113599	-0.5672241
84	0xbe646729	-0.22304977
85	0x3e1fa492	0.15590122
86	0x3e907cd5	0.2822024
87	0xbd9e8b8d	-0.07741461
88	0xbe77e9e6	-0.24210319
89	0x3eaaee1d	0.3338479
90	0xbef9b2ee	-0.48769325
91	0x3ec628d9	0.3870304
92	0xbe73464c	-0.23757285
93	0x3c198f8e	0.009372605
94	0xbdf7d675	-0.12101451
95	0x3d980ceb	0.07424339
96	0xbe3d7fd7	-0.18505798
97	0x3ee5009a	0.4472702
98	0xbc43e84f	-0.011957242
99	0x3ef42fa2	0.4769259
100	0x3f11c42d	0.56939965
101	0xbe98c053	-0.29834232
102	0xbee4b9f7	-0.4467313
103	0x3efb8cad	0.49130765
104	0x3ef549b5	0.47907797
105	0xbeef6609	-0.46757534
106	0xbd44bfb4	-0.048034385
107	0xbf1a97a8	-0.6038766
108	0xbf005461	-0.5012875
109	0x3def0ea0	0.11672711
110	0x3e26be5e	0.16283557
111	0x3e04ed45	0.12981136
112	0xbe2aaa89	-0.16666616
113	0x3f10df23	0.5659048
114	0x3dbff093	0.09372058
115	0xbeb90316	-0.36135167
116	0xbd1a97c7	-0.037742402
117	0x3e169674	0.14705831
118	0x3e5abb31	0.2136047
119	0xbeddb1c3	-0.43299684
120	0x3e6de983	0.23233609
121	0xbea02ddb	-0.31284985
122	0xbf0243aa	-0.508845
123	0xbeab4146	-0.33448237
124	0x3f17301a	0.5905777
125	0x3f0624cc	0.523999
126	0x3f0c738c	0.5486381
127	0x3eb80c63	0.3594695
128	0x3ec0e0b6	0.3767144
129	0xbda7ddbc	-0.08196589
130	0xbeac83fa	-0.3369444
131	0x3e9c790a	0.30561095
132	0xbea277e1	-0.31732085
133	0xbed39807	-0.41326925
134	0xbe483e9e	-0.19555137
135	0x3e0398a8	0.12851202
136	0x3ea02bdb	0.3128346
137	0xbe738f35	-0.23785098
138	0xbeb88935	-0.3604218
139	0x3da92cb4	0.082604796
140	0xbeb8cec9	-0.36095265
141	0xbecc215e	-0.39869207
142	0x3ea3cf8e	0.3199429
143	0xbdd2ad0f	-0.102869146
144	0x3f0baabf	0.5455741
145	0x3f184750	0.59483814
146	0x3e5c8d0b	0.21538179
147	0x3e5afb5f	0.21384953
148	0x3e39d9e7	0.1814953
149	0x3c1d209a	0.009590292
150	0xbd366ee4	-0.044539347
151	0x3c09e56f	0.008416518
152	0x3e6e7897	0.23288189
153	0x3f133e40	0.5751686
154	0xbe2282bf	-0.15870188
155	0xbe84893c	-0.25885952
156	0xbe17daab	-0.14829509
157	0xbe9779e9	-0.29585198
158	0x3dd4f642	0.103985325
159	0x3eea0998	0.45710444
160	0x3ed24dbe	0.41074938
161	0x3e8d9a03	0.27656564
162	0xbee6bd75	-0.4506642
163	0xbea8468c	-0.32866323
164	0xbdec61ac	-0.11542067
165	0xbde72b06	-0.11287503
166	0x3d5b589c	0.0535513
167	0xbf0fe870	-0.56214046
168	0x3e438b1d	0.19096036
169	0xbeef2fd7	-0.46716186
170	0xbec6632d	-0.3874754
171	0xbf025569	-0.50911576
172	0x3f08982f	0.53357214
173	0xbf147302	-0.5798799
174	0x3eecae70	0.46226835
175	0xbca8a41b	-0.020586064
176	0xbda746cb	-0.081677996
177	0x3ec03d58	0.37546802
178	0xbd77a245	-0.060457487
179	0x3ec2ec48	0.38070893
180	0x3ecaada4	0.39585602
181	0xbf081b64	-0.53166795
182	0x3e6ab243	0.22919564
183	0x3decc14c	0.11560306
184	0x3dfa4678	0.12220472
185	0x3da71ec7	0.08160167
186	0x3e23dd6d	0.16002436
187	0xbe96d4c6	-0.29459208
188	0xbda074b8	-0.07834762
189	0x3f13cf5d	0.57738286
190	0x3ed2ffc5	0.41210762
191	0xbcbc76d6	-0.023005884

layers.0.bias f4 [12]
0	0x3de99078	0.11404508
1	0x3de454ff	0.11149024
2	0xbcae5a54	-0.021283306
3	0xbe060fc9	-0.13091959
4	0x3d661c84	0.05617954
5	0xbda6bb92	-0.08141245
6	0x3d2df2e6	0.042467974
7	0x3d9d655c	0.076853484
8	0xbea147ba	-0.31500036
9	0xbcafcf1a	-0.021461058
10	0x3e24ac39	0.16081323
11	0xbc1e9963	-0.009680125

layers.2.weight f4 [8, 12]
0	0xbf2a3ee3	-0.6650221
1	0x3ce718ec	0.028210126
2	0xbefb50bb	-0.4908503
3	0x3f0f69cd	0.56020814
4	0xbedcc9ad	-0.43122616
5	0xbd9252db	-0.0714471
6	0xbe24746e	-0.1606004
7	0x3df8e3f8	0.121528566
8	0x3f28c062	0.6591855
9	0x3d16beee	0.03680318
10	0x3ebfdab5	0.37471548
11	0x3f0bb5b8	0.54574156
12	0x3f0f98de	0.5609263
13	0xbe7b8853	-0.24563722
14	0xbe401085	-0.18756302
15	0x3e8fd24a	0.28090125
16	0xbe484580	-0.19557762
17	0x3e7f47a4	0.24929672
18	0xbe23dabb	-0.16001408
19	0xbef7efca	-0.48425132
20	0x3e8300e5	0.2558662
21	0x3c2b9498	0.010472439
22	0x3e42af2e	0.19012138
23	0x3f32c7da	0.698362
24	0x3ef5d3f5	0.48013273
25	0x3f25d504	0.6477816
26	0x3d13c120	0.03607285
27	0xbf1bccd2	-0.60859406
28	0xbefdfae0	-0.49605465
29	0xbee0e390	-0.43923616
30	0xbf1f8c88	-0.6232381
31	0xbeb5c833	-0.35504302
32	0xbf26a3fc	-0.6509397
33	0xbf2724b7	-0.652904
34	0xbed8567e	-0.42253488
35	0xbf33dc6a	-0.702582
36	0xbede27ef	-0.43389842
37	0x3e85628f	0.26051757
38	0x3f179fad	0.5922802
39	0xbe575b2b	-0.21030872
40	0xbe4e8c57	-0.20170723
41	0x3ec15df9	0.37767008
42	0xbeb09a69	-0.34492806
43	0xbeab1322	-0.33413035
44	0x3edf100e	0.43566936
45	0xbf1da287	-0.6157612
46	0x3db2263f	0.08698701
47	0x3f1ffa45	0.62491256
48	0x3df856c7	0.121259265
49	0x3e44e889	0.1922933
50	0xbed2d91e	-0.41181272
51	0xbc1fd626	-0.009755647
52	0x3d1f4082	0.03887988
53	0x3e31b6a1	0.17354824
54	0x3e8cab2e	0.2747435
55	0x3f1d4af1	0.61442477
56	0xbf0a2c06	-0.53973424
57	0x3cada2ad	0.021195734
58	0xbeb4e33d	-0.3532962
59	0xbf0f32a7	-0.55936664
60	0xbd8e203e	-0.069397435
61	0xbf1fa6b2	-0.6236373
62	0x3ef76ec9	0.4832671
63	0x3da0f223	0.07858684
64	0xbec42209	-0.38307217
65	0x3ebc35bb	0.36759743
66	0xbf2b6ab9	-0.6695972
67	0xbe8d2d93	-0.27573833
68	0xbe0d1057	-0.13775764
69	0xbf1b5c8e	-0.606881
70	0xbee63757	-0.44964096
71	0xbdedcf94	-0.11611858
72	0x3eff93ae	0.49917358
73	0x3f2095a5	0.6272834
74	0x3ecbf2f6	0.39833802
75	0xbedb07d9	-0.42779425
76	0xbf047ae0	-0.5174999
77	0x3f1d0ed7	0.6135077
78	0x3e453f31	0.19262387
79	0x39c930fa	0.00038374198
80	0x3dc34905	0.09535412
81	0xbf15972b	-0.5843379
82	0xbe7bfff4	-0.24609357
83	0x3f213f13	0.6298687
84	0xbe3275af	-0.17427705
85	0xbd065546	-0.032796167
86	0xbf164e55	-0.58713275
87	0xbeca86ea	-0.39556056
88	0xbc6c90de	-0.014438836
89	0xbee0e23c	-0.43922603
90	0xbdb308e5	-0.08741931
91	0x3e93d954	0.28876746
92	0xbf3111aa	-0.6916758
93	0x3e570f4a	0.21001926
94	0xbeef6207	-0.46754476
95	0xbeafdedf	-0.34349725

layers.2.bias f4 [8]
0	0xbd5c1f94	-0.053741053
1	0xbe8be0f8	-0.27320075
2	0xbe0c0cd1	-0.13676764
3	0xbe19dc29	-0.1502539
4	0xbe7091f1	-0.23493172
5	0x3e62a220	0.22132158
6	0xbe94432f	-0.28957507
7	0x3da82dab	0.082118355

layers.4.weight f4 [4, 8]
0	0x3e9517c6	0.291197
1	0x3f2f09cb	0.6837432
2	0xbe6f064f	-0.2334225
3	0xbeb34c73	-0.35019264
4	0xbf4878aa	-0.7830912
5	0xbee03a57	-0.4379451
6	0xbf3b604d	-0.7319382
7	0xbe4ae7a2	-0.19814923
8	0x3e520a42	0.20511726
9	0xbf4b41a7	-0.7939705
10	0x3f3fae23	0.74875087
11	0x3f096fa5	0.5368598
12	0xbf5908e5	-0.84779197
13	0xbed22f8e	-0.41051906
14	0x3e8b6ad4	0.2722994
15	0xbe365880	-0.17807198
16	0xbc9f5aeb	-0.019452533
17	0xbeb786db	-0.35845074
18	0x3f31e7ed	0.69494516
19	0xbef69a1d	-0.48164454
20	0x3f37da4d	0.71817476
21	0x3d62599e	0.055261247
22	0x3e3e1496	0.1856254
23	0x3f2cf520	0.6756153
24	0xbce1f648	-0.027583256
25	0xbee346ba	-0.44389898
26	0xbe0d24b8	-0.13783538
27	0x3f35ab85	0.70964843
28	0xbf24801d	-0.64257985
29	0x3e4fbec1	0.2028761
30	0xbf50d448	-0.81573915
31	0x3ee883c5	0.45413032

layers.4.bias f4 [4]
0	0xbcd3d9a5	-0.025860617
1	0xbcdc0bba	-0.02686106
2	0x3d427318	0.047473043
3	0x3d086f75	0.03330942
