DQN/4x4_map/final_weights2024-07-31 15:26:39.682159_3000.pth (torch, 4095 bytes, 6 tensors)

layers.0.weight f4 [12, 16]
0	0xbefd72ae	-0.49501556
1	0xbea7e2c5	-0.327902
2	0x3f11a416	0.56891
3	0xbe97711e	-0.2957849
4	0xbed28c1d	-0.41122523
5	0x3e17ff7c	0.14843553
6	0x3e270e81	0.16314127
7	0x3eabc9e9	0.33552483
8	0x3eea6d0e	0.45786327
9	0x3eab415a	0.33448297
10	0xbf1b6f5b	-0.6071679
11	0x3d5e74a6	0.054310463
12	0x3ebdecb3	0.3709465
13	0xbd77aeab	-0.06046931
14	0xbeb8c26d	-0.36085835
15	0x3f1573db	0.58379906
16	0xbe6a8a9a	-0.22904435
17	0xbeb2825f	-0.3486509
18	0xbf0d559b	-0.5520875
19	0x3cc413e5	0.023935268
20	0x3e636794	0.2220748
21	0x3e0acf53	0.1355565
22	0x3de83715	0.11338631
23	0xbeedc7e1	-0.46441558
24	0xbf12672d	-0.57188684
25	0x3c728c4d	0.014803958
26	0x3efc9a82	0.4933663
27	0x3eb4e286	0.35329074
28	0xbeb68cf7	-0.35654423
29	0xbdabda9d	-0.083913065
30	0xbee721f4	-0.45143092
31	0xbe9741a9	-0.29542282
32	0x3e2d520f	0.16925834
33	0x3ead0f1d	0.33800593
34	0x3ef82bfa	0.4847105
35	0xbf0fedd7	-0.5622229
36	0x3ec28e90	0.37999392
37	0xbedd2230	-0.43190145
38	0x3e65ee31	0.22454144
39	0x3f04a9e4	0.5182173
40	0x3c0ce383	0.008599165
41	0x3f0dd5dc	0.5540445
42	0xbf0592e8	-0.52177286
43	0xbe6f83d2	-0.23390129
44	0x3eb6deba	0.35716802
45	0xbe089e46	-0.13341627
46	0xbe005c7b	-0.12535278
47	0xbe82adbc	-0.25523174
48	0x3eaadfce	0.33373874
49	0x3e96c266	0.2944519
50	0x3e59fcc5	0.2128783
51	0xbeb031f3	-0.34413108
52	0xbefe82fc	-0.49709308
53	0x3d87a5ff	0.06623458
54	0x3e3f16d1	0.18661048
55	0xbe90c340	-0.28273964
56	0xbe2f73db	-0.17134039
57	0x3ed2ccb3	0.41171798
58	0x3d47cf03	0.048781406
59	0x3ce256af	0.027629225
60	0xbe1a5276	-0.15070519
61	0xbf0df787	-0.5545582
62	0xbf1366d4	-0.5757878
63	0xbe95dfd3	-0.29272327
64	0xbe9f605c	-0.31128204
65	0x3e47b550	0.19502759
66	0xbe368bf1	-0.17826821
67	0xbe7552cc	-0.23957366
68	0x3f1ecfd2	0.6203586
69	0x3e5a6c30	0.21330333
70	0x3ee24792	0.4419523
71	0xbe97c941	-0.29645732
72	0xbe80118b	-0.25013384
73	0x3e6c8b0b	0.23099916
74	0xbed0e67f	-0.40800855
75	0xbeccf57b	-0.40031037
76	0xbcf24c47	-0.029577387
77	0xbe655b7a	-0.22398177
78	0xbeeb0b36	-0.4590699
79	0x3eb9f9d6	0.36323422
80	0x3ee1a66b	0.4407228
81	0x3dc9af6c	0.09847912
82	0xbdda5cba	-0.106622174
83	0xbf113599	-0.5672241
84	0xbe646729	-0.22304977
85	0x3e1fa492	0.15590122
86	0x3e907cd5	0.2822024
87	0xbd9e8b8d	-0.07741461
88	0xbe77e9e6	-0.24210319
89	0x3eab0dfd	0.3340911
90	0xbef9b2ee	-0.48769325
91	0x3ec628d9	0.3870304
92	0xbe73464c	-0.23757285
93	0x3c198f8e	0.009372605
94	0xbdf7d675	-0.12101451
95	0x3d980ceb	0.07424339
96	0xbe3d7fd7	-0.18505798
97	0x3ee4f70a	0.44719726
98	0xbc41f5e1	-0.011838407
99	0x3ef42ce0	0.47690487
100	0x3f11c42d	0.56939965
101	0xbe98c053	-0.29834232
102	0xbee4b9f7	-0.4467313
103	0x3efb8cad	0.49130765
104	0x3ef549b5	0.47907797
105	0xbeef6609	-0.46757534
106	0xbd44bfb4	-0.048034385
107	0xbf1a97a8	-0.6038766
108	0xbf005461	-0.5012875
109	0x3def0db4	0.116725355
110	0x3e26bf0d	0.16283818
111	0x3e04ed45	0.12981136
112	0xbe2aaa89	-0.16666616
113	0x3f10e1a8	0.56594324
114	0x3dc02c28	0.09383422
115	0xbeb90316	-0.36135167
116	0xbd1a97c7	-0.037742402
117	0x3e169674	0.14705831
118	0x3e5abb31	0.2136047
119	0xbeddb1c3	-0.43299684
120	0x3e6de983	0.23233609
121	0xbea02ddb	-0.31284985
122	0xbf0243aa	-0.508845
123	0xbeab4146	-0.33448237
124	0x3f17301a	0.5905777
125	0x3f062187	0.5239491
126	0x3f0c739d	0.5486391
127	0x3eb80c63	0.3594695
128	0x3ec0d76f	0.37664363
129	0xbda7ddbc	-0.08196589
130	0xbeac83fa	-0.3369444
131	0x3e9c790a	0.30561095
132	0xbea277e1	-0.31732085
133	0xbed39807	-0.41326925
134	0xbe483e9e	-0.19555137
135	0x3e0398a8	0.12851202
136	0x3ea02bdb	0.3128346
137	0xbe738f35	-0.23785098
138	0xbeb88935	-0.3604218
139	0x3da92cb4	0.082604796
140	0xbeb8cec9	-0.36095265
141	0xbecc215e	-0.39869207
142	0x3ea3ce23	0.31993207
143	0xbdd2ad0f	-0.102869146
144	0x3f0baac0	0.5455742
145	0x3f18477c	0.59484076
146	0x3e5d525c	0.21613449
147	0x3e5b075d	0.21389528
148	0x3e39d9e7	0.1814953
149	0x3c1d209a	0.009590292
150	0xbd366ee4	-0.044539347
151	0x3c09e56f	0.008416518
152	0x3e6e7897	0.23288189
153	0x3f1323be	0.57476413
154	0xbe2282bf	-0.15870188
155	0xbe84893c	-0.25885952
156	0xbe17daab	-0.14829509
157	0xbe9779e9	-0.29585198
158	0x3dd4f5f6	0.10398476
159	0x3eea0998	0.45710444
160	0x3ed24886	0.41070956
161	0x3e8db22c	0.27674997
162	0xbee6bd75	-0.4506642
163	0xbea8468c	-0.32866323
164	0xbdec61ac	-0.11542067
165	0xbde72b06	-0.11287503
166	0x3d5b589c	0.0535513
167	0xbf0fe870	-0.56214046
168	0x3e438b1d	0.19096036
169	0xbeef2fd7	-0.46716186
170	0xbec6632d	-0.3874754
171	0xbf025569	-0.50911576
172	0x3f08982f	0.53357214
173	0xbf147302	-0.5798799
174	0x3eecadad	0.46226254
175	0xbca8a41b	-0.020586064
176	0xbda746cb	-0.081677996
177	0x3ec060ae	0.3757376
178	0xbd77a245	-0.060457487
179	0x3ec2eb56	0.38070172
180	0x3ecaada4	0.39585602
181	0xbf081b64	-0.53166795
182	0x3e6ab243	0.22919564
183	0x3decc14c	0.11560306
184	0x3dfa4678	0.12220472
185	0x3da6f717	0.081525974
186	0x3e206384	0.15662962
187	0xbe96d4c6	-0.29459208
188	0xbda074b8	-0.07834762
189	0x3f13d04c	0.5773971
190	0x3ed2fea9	0.41209915
191	0xbcbc76d6	-0.023005884

layers.0.bias f4 [12]
0	0x3de8a193	0.11358943
1	0x3db64e42	0.08901645
2	0xbcb1be04	-0.021697052
3	0xbe0572b2	-0.13032034
4	0x3d643383	0.055713188
5	0xbda64b22	-0.08119799
6	0x3d2e0334	0.042483523
7	0x3d9da828	0.07698089
8	0xbea1526c	-0.31508195
9	0xbcac7205	-0.021050462
10	0x3e24d0be	0.16095254
11	0xbc532b62	-0.012888761

layers.2.weight f4 [8, 12]
0	0xbf2a3edd	-0.6650217
1	0x3cce09d9	0.02515118
2	0xbefb3e41	-0.49070933
3	0x3f0f6d76	0.560264
4	0xbedcb9a1	-0.43110374
5	0xbd92629a	-0.07147713
6	0xbe242c7c	-0.16032594
7	0x3df9885f	0.12184214
8	0x3f28c086	0.6591877
9	0x3d17ba0b	0.03704266
10	0x3ebfedda	0.37486154
11	0x3f0b9239	0.54519993
12	0x3f0f98de	0.5609263
13	0xbe7b8853	-0.24563722
14	0xbe401085	-0.18756302
15	0x3e8fd24a	0.28090125
16	0xbe484580	-0.19557762
17	0x3e7f47a4	0.24929672
18	0xbe23dabb	-0.16001408
19	0xbef7efca	-0.48425132
20	0x3e8300e5	0.2558662
21	0x3c2b9498	0.010472439
22	0x3e42af2e	0.19012138
23	0x3f32c7da	0.698362
24	0x3ef5d3f5	0.48013273
25	0x3f22ac0e	0.63543785
26	0x3d13c120	0.03607285
27	0xbf1bccd2	-0.60859406
28	0xbefdfae0	-0.49605465
29	0xbee0e390	-0.43923616
30	0xbf1f8c88	-0.6232381
31	0xbeb5c833	-0.35504302
32	0xbf26a3fc	-0.6509397
33	0xbf2724b7	-0.652904
34	0xbed8567e	-0.42253488
35	0xbf34a011	-0.7055674
36	0xbede27ef	-0.43389842
37	0x3e812cf0	0.25229597
38	0x3f179fad	0.5922802
39	0xbe575b2b	-0.21030872
40	0xbe4e8c57	-0.20170723
41	0x3ec15df9	0.37767008
42	0xbeb09a69	-0.34492806
43	0xbeab1322	-0.33413035
44	0x3edf100e	0.43566936
45	0xbf1da287	-0.6157612
46	0x3db2263f	0.08698701
47	0x3f1f77fa	0.62292445
48	0x3df856c7	0.121259265
49	0x3e44e889	0.1922933
50	0xbed2d91e	-0.41181272
51	0xbc1fd626	-0.009755647
52	0x3d1f4082	0.03887988
53	0x3e31b6a1	0.17354824
54	0x3e8cab2e	0.2747435
55	0x3f1d4af1	0.61442477
56	0xbf0a2c06	-0.53973424
57	0x3cada2ad	0.021195734
58	0xbeb4e33d	-0.3532962
59	0xbf0f32a7	-0.55936664
60	0xbd8e1c1d	-0.06938956
61	0xbf1fa1ba	-0.6235615
62	0x3ef783ec	0.48342836
63	0x3da140fc	0.07873723
64	0xbec408fd	-0.38288108
65	0x3ebc4bd6	0.36776608
66	0xbf2b6b70	-0.6696081
67	0xbe8d35e0	-0.27580166
68	0xbe0d1057	-0.13775764
69	0xbf1b49e7	-0.6065964
70	0xbee63757	-0.44964096
71	0xbdedb77b	-0.11607262
72	0x3eff46b7	0.4985864
73	0x3f1f4fb1	0.62230974
74	0x3ecbbf04	0.3979417
75	0xbedb11a3	-0.42786893
76	0xbf047ae0	-0.5174999
77	0x3f1d0ed7	0.6135077
78	0x3e452ba0	0.19254923
79	0x3948a7b8	0.00019135966
80	0x3dc34905	0.09535412
81	0xbf15a314	-0.5845196
82	0xbe7bfff4	-0.24609357
83	0x3f20ec01	0.62860113
84	0xbe3277e8	-0.17428553
85	0xbcf8bf90	-0.030364782
86	0xbf164e55	-0.58713275
87	0xbeca86ea	-0.39556056
88	0xbc6c90de	-0.014438836
89	0xbee0e23c	-0.43922603
90	0xbdb316e1	-0.08744598
91	0x3e93cc25	0.28866687
92	0xbf3111aa	-0.6916758
93	0x3e570f4a	0.21001926
94	0xbeef6207	-0.46754476
95	0xbeaf9e5b	-0.34300503

layers.2.bias f4 [8]
0	0xbd6f12a5	-0.05836739
1	0xbe8be0f8	-0.27320075
2	0xbe20f7e4	-0.15719563
3	0xbe27c4bd	-0.16383643
4	0xbe7091f1	-0.23493172
5	0x3e62e049	0.2215587
6	0xbe98f986	-0.2987787
7	0x3db00b00	0.08595848

layers.4.weight f4 [4, 8]
0	0x3e94f7e1	0.29095367
1	0x3f2f09cb	0.6837432
2	0xbe6ee47a	-0.23329344
3	0xbeb3418f	-0.35010955
4	0xbf4878aa	-0.7830912
5	0xbee023c2	-0.4377728
6	0xbf3b511d	-0.73170644
7	0xbe4ae3cd	-0.19813462
8	0x3e51722b	0.20453708
9	0xbf4b41a7	-0.7939705
10	0x3f3ec169	0.7451387
11	0x3f08d741	0.5345345
12	0xbf5908e5	-0.84779197
13	0xbed22b10	-0.4104848
14	0x3e891180	0.26771164
15	0xbe36bf72	-0.17846468
16	0xbcb06d53	-0.021536505
17	0xbeb786db	-0.35845074
18	0x3f31e090	0.6948328
19	0xbef6a398	-0.48171687
20	0x3f37da4d	0.71817476
21	0x3d63d956	0.05562719
22	0x3e3dc467	0.18531953
23	0x3f2cf379	0.6755901
24	0xbce08fae	-0.027412262
25	0xbee346ba	-0.44389898
26	0xbe0d16a5	-0.1377817
27	0x3f35adc5	0.70968276
28	0xbf24801d	-0.64257985
29	0x3e4fc082	0.2028828
30	0xbf50cf4c	-0.8156631
31	0x3ee8847e	0.45413584

layers.4.bias f4 [4]
0	0xbcc4d29d	-0.02402621
1	0xbd4837dd	-0.0488814
2	0x3d2d83e9	0.042362127
3	0x3d0c57a2	0.03426326
