DQN/4x4_map/final_weights2024-07-31 15:26:39.682159_500.pth (torch, 4087 bytes, 6 tensors)

layers.0.weight f4 [12, 16]
00000000: ae72 fdbe c5e2 a7be 7f65 133f 1e71 97be
00000010: 1d8c d2be 7cff 173e 83a4 273e e9c9 ab3e
00000020: 0374 ea3e 3d22 ab3e 5b6f 1bbf a674 5e3d
00000030: b3ec bd3e 4cbc 72bd 6dc2 b8be db73 153f
00000040: 9a8a 6abe 5f82 b2be 9b55 0dbf 312d d03c
00000050: fd89 643e 53cf 0a3e fdaf e93d e1c7 edbe
00000060: 2d67 12bf 5836 503c 4d13 0c3f 86e2 b43e
00000070: f78c b6be d816 a9bd f421 e7be a941 97be
00000080: 5f74 203e 4178 ac3e 0b35 fd3e d7ed 0fbf
00000090: f6ea c23e 3022 ddbe 8a65 663e e4a9 043f
000000a0: 83e3 0c3c 9340 0e3f e892 05bf d283 6fbe
000000b0: bade b63e 469e 08be 7b5c 00be bcad 82be
000000c0: c148 b23e c470 973e 5123 543e f331 b0be
000000d0: fc82 febe ffa5 873d 3998 3e3e 40c3 90be
000000e0: db73 2fbe feee d23e 03cf 473d af56 e23c
000000f0: 7652 1abe 87f7 0dbf d466 13bf d3df 95be
00000100: 5c60 9fbe 2caa 463e f18b 36be cc52 75be
00000110: 2c95 1e3f 306c 5a3e 11fb e13e 41c9 97be
00000120: 8b11 80be 1b3a 6b3e 7fe6 d0be 7bf5 ccbe
00000130: 474c f2bc 7a5b 65be 360b ebbe d6f9 b93e
00000140: bec4 e03e e760 c93d ba5c dabd 9935 11bf
00000150: 2967 64be 92a4 1f3e 16d8 903e 8d8b 9ebd
00000160: e6e9 77be edb0 ab3e eeb2 f9be d928 c63e
00000170: 4c46 73be 8e8f 193c 75d6 f7bd eb0c 983d
00000180: d77f 3dbe 7cc4 e43e 84be 74bc 1e6e f43e
00000190: 47da 113f 53c0 98be f7b9 e4be ad8c fb3e
000001a0: 5a4c f53e 0966 efbe b4bf 44bd a897 1abf
000001b0: 6154 00bf c0fa ef3d aae0 263e 45ed 043e
000001c0: 89aa 2abe 85f6 103f f43b bb3d 1603 b9be
000001d0: 3a8e 1abd 7496 163e cdbb 5a3e c3b1 ddbe
000001e0: 8de9 6d3e db2d a0be aa43 02bf 4641 abbe
000001f0: 1a30 173f de1c 063f c86c 0c3f 630c b83e
00000200: 5c87 c93e bcdd a7bd fa83 acbe 4b7e 9c3e
00000210: e177 a2be 0798 d3be 9e3e 48be a898 033e
00000220: 2b2d a03e 358f 73be 3589 b8be b42c a93d
00000230: c9ce b8be 5e21 ccbe 8188 a33e 0fad d2bd
00000240: 4af6 0b3f f34f 183f 2852 4f3e c49b 593e
00000250: 27d2 383e 9a20 1d3c e46e 36bd 6fe5 093c
00000260: f068 6e3e df9d 123f bf82 22be 3c89 84be
00000270: abda 17be e979 97be d2e2 d43d 9809 ea3e
00000280: 4050 d73e 0e2a 8e3e 75bd e6be 8c46 a8be
00000290: 0141 edbd 062b e7bd c034 5a3d 70e8 0fbf
000002a0: 6784 433e d72f efbe 2d63 c6be 6955 02bf
000002b0: 2f98 083f 0273 14bf 3485 ec3e 1ba4 a8bc
000002c0: cb46 a7bd c109 c13e 45a2 77bd 7d90 c33e
000002d0: f13d cb3e 641b 08bf 9e6d 6b3e 4cc1 ec3d
000002e0: 9e68 fa3d d729 a63d 8fe5 283e c6d4 96be
000002f0: b874 a0bd eb26 143f fec4 d23e d676 bcbc
-0.49501556 -0.327902 0.57576746 -0.2957849 -0.41122523 0.14843553 0.1637135 0.33552483
0.45791635 0.3342456 -0.6071679 0.054310463 0.3709465 -0.059261605 -0.36085835 0.58379906
-0.22904435 -0.3486509 -0.5520875 0.025412174 0.22318263 0.1355565 0.1141052 -0.46441558
-0.57188684 0.012708269 0.5471695 0.35329074 -0.35654423 -0.0825631 -0.45143092 -0.29542282
0.15669392 0.33685496 0.4945453 -0.5622229 0.38069886 -0.43190145 0.22499672 0.5182173
0.008599165 0.5556728 -0.52177286 -0.23390129 0.35716802 -0.13341627 -0.12535278 -0.25523174
0.34821132 0.2957822 0.20716597 -0.34413108 -0.49709308 0.06623458 0.18612756 -0.28273964
-0.17134039 0.41197962 0.048781406 0.027629225 -0.15070519 -0.5545582 -0.5757878 -0.29272327
-0.31128204 0.19400853 -0.17826821 -0.23957366 0.6194637 0.21330333 0.4413686 -0.29645732
-0.25013384 0.22971384 -0.40800855 -0.40031037 -0.029577387 -0.22398177 -0.4590699 0.36323422
0.43900102 0.09832936 -0.106622174 -0.5672241 -0.22304977 0.15590122 0.2828986 -0.07741461
-0.24210319 0.3353342 -0.48769325 0.3870304 -0.23757285 0.009372605 -0.12101451 0.07424339
-0.18505798 0.44681156 -0.014938001 0.47740263 0.5697369 -0.29834232 -0.4467313 0.49130765
0.47909814 -0.46757534 -0.048034385 -0.6038766 -0.5012875 0.11717749 0.1629664 0.12981136
-0.16666616 0.5662616 0.091422945 -0.36135167 -0.037733294 0.14705831 0.21360703 -0.43299684
0.23233624 -0.31284985 -0.508845 -0.33448237 0.5905777 0.523878 0.54853487 0.3594695
0.39361084 -0.08196589 -0.3369444 0.30565104 -0.31732085 -0.41326925 -0.19555137 0.12851202
0.3128446 -0.23785098 -0.3604218 0.082604796 -0.36095265 -0.39869207 0.31940082 -0.102869146
0.5467268 0.5949699 0.20246184 0.21250826 0.18048917 0.009590292 -0.044539347 0.008416518
0.23282218 0.5727214 -0.15870188 -0.25885952 -0.14829509 -0.29585198 0.10394825 0.45710444
0.42053413 0.2776646 -0.4506642 -0.32866323 -0.11584664 -0.11287503 0.053272963 -0.56214046
0.19093476 -0.46716186 -0.3874754 -0.50911576 0.53357214 -0.5798799 0.46195376 -0.020586064
-0.081677996 0.37702754 -0.060457487 0.38196173 0.39695695 -0.53166795 0.22991034 0.11560306
0.122269854 0.08113449 0.1649382 -0.29459208 -0.07834762 0.57871884 0.41165918 -0.023005884

layers.0.bias f4 [12]
00000000: 17fb f93d b8dd 143e bce5 babc c3a6 f6bd
00000010: 79b2 543d 032a a6bd 9bb5 253d 49fb 983d
00000020: ace1 98be 2c9f 1bbd f1c0 2e3e 40ea c039
0.12206095 0.14537704 -0.022814624 -0.12043526 0.051928017 -0.08113482 0.040456396 0.07469804
-0.29859674 -0.037993595 0.17065789 0.00036795624

layers.2.weight f4 [8, 12]
00000000: b43e 2abf e7f7 013d 1a07 f9be 16f4 103f
00000010: 696c dcbe 4edc 7ebd b561 23be b86a fb3d
00000020: fb41 293f fd43 533d 95dd c73e 3510 0c3f
00000030: de98 0f3f 5388 7bbe 8510 40be 4ad2 8f3e
00000040: 8045 48be a447 7f3e bbda 23be caef f7be
00000050: e500 833e 9894 2b3c 2eaf 423e dac7 323f
00000060: a3fc f53e 0070 2a3f 199d 143d 58ca 1bbf
00000070: e0fa fdbe 90e3 e0be e38b 1fbf 67be b5be
00000080: fca3 26bf e61f 27bf 7e56 d8be 84c3 32bf
00000090: ef27 debe 261b 8b3e ad9f 173f 2b5b 57be
000000a0: 578c 4ebe f95d c13e 699a b0be 2213 abbe
000000b0: 0e10 df3e 87a2 1dbf 3f26 b23d c9a8 203f
000000c0: c756 f83d 89e8 443e 1ed9 d2be 26d6 1fbc
000000d0: 8240 1f3d a1b6 313e 2eab 8c3e f14a 1d3f
000000e0: 062c 0abf ada2 ad3c 3de3 b4be a732 0fbf
000000f0: 396e 7ebd 2e7f 1fbf 3169 fa3e d9b4 a43d
00000100: d689 c3be 4dbb bc3e 6a5b 2bbf 0482 8cbe
00000110: 5710 0dbe 4c6f 1abf 5737 e6be f22a edbd
00000120: af49 023f 2a5e 233f ce97 cf3e 3c64 dabe
00000130: 9209 04bf 861c 1d3f 0f4e 483e 93ce 8c3b
00000140: 544b c33d 31cc 14bf 069a 7bbe 2496 223f
00000150: e67a 32be 97db 10bd 554e 16bf ea86 cabe
00000160: de90 6cbc 3ce2 e0be 2225 b3bd d4be 933e
00000170: aa11 31bf 4a0f 573e 0762 efbe 9548 b0be
-0.6650193 0.03173056 -0.4863823 0.56622446 -0.4305146 -0.062221818 -0.15955241 0.12276214
0.66116303 0.05157851 0.3903624 0.5471223 0.5609263 -0.24563722 -0.18756302 0.28090125
-0.19557762 0.24929672 -0.16001408 -0.48425132 0.2558662 0.010472439 0.19012138 0.698362
0.4804431 0.6657715 0.036282632 -0.6085563 -0.49605465 -0.43923616 -0.62322825 -0.35496828
-0.6509397 -0.6528305 -0.42253488 -0.69829583 -0.43389842 0.2716915 0.5922802 -0.21030872
-0.20170723 0.37767008 -0.34492806 -0.33413035 0.43566936 -0.6157612 0.08698701 0.62757546
0.121259265 0.1922933 -0.41181272 -0.009755647 0.03887988 0.17354824 0.2747435 0.61442477
-0.53973424 0.021195734 -0.3532962 -0.55936664 -0.062116835 -0.62303436 0.4890838 0.080423065
-0.38191098 0.3686165 -0.6693636 -0.27442944 -0.13775764 -0.60326076 -0.44964096 -0.11580457
0.5089368 0.6381556 0.40545505 -0.42654598 -0.51577103 0.6137165 0.19561027 0.0042970865
0.09535852 -0.5812407 -0.24570474 0.63510346 -0.17429695 -0.035365667 -0.58713275 -0.39556056
-0.014438836 -0.43922603 -0.08747317 0.28856528 -0.6916758 0.21001926 -0.46754476 -0.34430376

layers.2.bias f4 [8]
00000000: 7fa2 acbc f8e0 8bbe d931 dfbd ee63 08be
00000010: f191 70be 77dd 6e3e 9b53 82be 2569 9f3d
-0.021073578 -0.27320075 -0.108981796 -0.1331937 -0.23493172 0.2332667 -0.2545441 0.077837266

layers.4.weight f4 [4, 8]
00000000: fbeb a03e cb09 2f3f 3a03 70be f39f b3be
00000010: aa78 48bf d72e e2be 2357 3cbf a0f2 4abe
00000020: db95 533e a741 4bbf 1158 413f 2c8b 0a3f
00000030: e508 59bf 7fbc d2be 5a16 8f3e 3033 36be
00000040: dd00 e0bc db86 b7be 2402 323f 5f77 f6be
00000050: 4dda 373f c39c 643d 68e7 3e3e 7bf5 2c3f
00000060: d310 1fbd ba46 e3be c796 0dbe a598 353f
00000070: 1d80 24bf 4517 4f3e b122 51bf da7f e83e
0.3143004 0.6837432 -0.23438731 -0.3508297 -0.7830912 -0.4417636 -0.7357046 -0.19819117
0.20662634 -0.7939705 0.75525004 0.5411861 -0.84779197 -0.41159436 0.2794674 -0.17792964
-0.027344162 -0.35845074 0.69534516 -0.48137948 0.71817476 0.055813562 0.18642962 0.67562073
-0.038834404 -0.44389898 -0.13827048 0.7093604 -0.64257985 0.2022372 -0.8169356 0.45410043

layers.4.bias f4 [4]
00000000: ff3c 6aba 9924 9dbc 573d 103c 073f bb3c
-0.0008935481 -0.01918249 0.008803687 0.022857202
