DQN/4x4_map/final_weights2024-07-31 15:26:39.682159_1500.pth (torch, 4095 bytes, 6 tensors)

layers.0.weight f4 [12, 16]
0	0xbefd72ae	-0.49501556
1	0xbea7e2c5	-0.327902
2	0x3f11f9f7	0.5702204
3	0xbe97711e	-0.2957849
4	0xbed28c1d	-0.41122523
5	0x3e17ff7c	0.14843553
6	0x3e272492	0.16322544
7	0x3eabc9e9	0.33552483
8	0x3eea6d0e	0.45786327
9	0x3eab3f94	0.33446944
10	0xbf1b6f5b	-0.6071679
11	0x3d5e74a6	0.054310463
12	0x3ebdecb3	0.3709465
13	0xbd75fff0	-0.060058534
14	0xbeb8c26d	-0.36085835
15	0x3f1573db	0.58379906
16	0xbe6a8a9a	-0.22904435
17	0xbeb2825f	-0.3486509
18	0xbf0d559b	-0.5520875
19	0x3cc7e168	0.024399474
20	0x3e63bb5f	0.22239445
21	0x3e0acf53	0.1355565
22	0x3de86e59	0.11349172
23	0xbeedc7e1	-0.46441558
24	0xbf12672d	-0.57188684
25	0x3c72b5f9	0.0148138935
26	0x3f0998e1	0.537489
27	0x3eb4e286	0.35329074
28	0xbeb68cf7	-0.35654423
29	0xbdaac608	-0.08338553
30	0xbee721f4	-0.45143092
31	0xbe9741a9	-0.29542282
32	0x3e29ccce	0.16582033
33	0x3ead376a	0.3383134
34	0x3ef93a54	0.48677313
35	0xbf0fedd7	-0.5622229
36	0x3ec2a8e3	0.38019475
37	0xbedd2230	-0.43190145
38	0x3e65ffce	0.22460863
39	0x3f04a9e4	0.5182173
40	0x3c0ce383	0.008599165
41	0x3f0dd4c5	0.55402786
42	0xbf0592e8	-0.52177286
43	0xbe6f83d2	-0.23390129
44	0x3eb6deba	0.35716802
45	0xbe089e46	-0.13341627
46	0xbe005c7b	-0.12535278
47	0xbe82adbc	-0.25523174
48	0x3eace31e	0.33767027
49	0x3e969354	0.29409277
50	0x3e58e029	0.2117926
51	0xbeb031f3	-0.34413108
52	0xbefe82fc	-0.49709308
53	0x3d87a5ff	0.06623458
54	0x3e3f0429	0.1865393
55	0xbe90c340	-0.28273964
56	0xbe2f73db	-0.17134039
57	0x3ed2cd76	0.4117238
58	0x3d47cf03	0.048781406
59	0x3ce256af	0.027629225
60	0xbe1a5276	-0.15070519
61	0xbf0df787	-0.5545582
62	0xbf1366d4	-0.5757878
63	0xbe95dfd3	-0.29272327
64	0xbe9f605c	-0.31128204
65	0x3e47fc0e	0.19529745
66	0xbe368bf1	-0.17826821
67	0xbe7552cc	-0.23957366
68	0x3f1ebeb8	0.62009764
69	0x3e5a6c30	0.21330333
70	0x3ee23c81	0.44186786
71	0xbe97c941	-0.29645732
72	0xbe80118b	-0.25013384
73	0x3e6c8d02	0.23100665
74	0xbed0e67f	-0.40800855
75	0xbeccf57b	-0.40031037
76	0xbcf24c47	-0.029577387
77	0xbe655b7a	-0.22398177
78	0xbeeb0b36	-0.4590699
79	0x3eb9f9d6	0.36323422
80	0x3ee165a6	0.44022864
81	0x3dc9c673	0.09852304
82	0xbdda5cba	-0.106622174
83	0xbf113599	-0.5672241
84	0xbe646729	-0.22304977
85	0x3e1fa492	0.15590122
86	0x3e908a61	0.28230575
87	0xbd9e8b8d	-0.07741461
88	0xbe77e9e6	-0.24210319
89	0x3eab0dbc	0.33408916
90	0xbef9b2ee	-0.48769325
91	0x3ec628d9	0.3870304
92	0xbe73464c	-0.23757285
93	0x3c198f8e	0.009372605
94	0xbdf7d675	-0.12101451
95	0x3d980ceb	0.07424339
96	0xbe3d7fd7	-0.18505798
97	0x3ee5029a	0.44728547
98	0xbc4d3220	-0.012524158
99	0x3ef44216	0.4770667
100	0x3f11ca8c	0.56949687
101	0xbe98c053	-0.29834232
102	0xbee4b9f7	-0.4467313
103	0x3efb8cad	0.49130765
104	0x3ef549b5	0.47907797
105	0xbeef6609	-0.46757534
106	0xbd44bfb4	-0.048034385
107	0xbf1a97a8	-0.6038766
108	0xbf005461	-0.5012875
109	0x3def5d39	0.11687703
110	0x3e26c2cd	0.16285248
111	0x3e04ed45	0.12981136
112	0xbe2aaa89	-0.16666616
113	0x3f10df33	0.56590575
114	0x3dbf243d	0.09333084
115	0xbeb90316	-0.36135167
116	0xbd1a96ef	-0.037741598
117	0x3e169674	0.14705831
118	0x3e5abb31	0.2136047
119	0xbeddb1c3	-0.43299684
120	0x3e6de983	0.23233609
121	0xbea02ddb	-0.31284985
122	0xbf0243aa	-0.508845
123	0xbeab4146	-0.33448237
124	0x3f17301a	0.5905777
125	0x3f0624c8	0.52399874
126	0x3f0c724c	0.54861903
127	0x3eb80c63	0.3594695
128	0x3ec33527	0.3812649
129	0xbda7ddbc	-0.08196589
130	0xbeac83fa	-0.3369444
131	0x3e9c790a	0.30561095
132	0xbea277e1	-0.31732085
133	0xbed39807	-0.41326925
134	0xbe483e9e	-0.19555137
135	0x3e0398a8	0.12851202
136	0x3ea02bdb	0.3128346
137	0xbe738f35	-0.23785098
138	0xbeb88935	-0.3604218
139	0x3da92cb4	0.082604796
140	0xbeb8cec9	-0.36095265
141	0xbecc215e	-0.39869207
142	0x3ea3c5a8	0.31986737
143	0xbdd2ad0f	-0.102869146
144	0x3f0bbe05	0.5458682
145	0x3f18474f	0.5948381
146	0x3e5a71c4	0.2133246
147	0x3e5a92e2	0.21345094
148	0x3e398ca0	0.1812005
149	0x3c1d209a	0.009590292
150	0xbd366ee4	-0.044539347
151	0x3c09e56f	0.008416518
152	0x3e6e7897	0.23288189
153	0x3f1324a8	0.5747781
154	0xbe2282bf	-0.15870188
155	0xbe84893c	-0.25885952
156	0xbe17daab	-0.14829509
157	0xbe9779e9	-0.29585198
158	0x3dd4f2f5	0.10397903
159	0x3eea0998	0.45710444
160	0x3ed3a2a4	0.41335022
161	0x3e8d938e	0.27651638
162	0xbee6bd75	-0.4506642
163	0xbea8468c	-0.32866323
164	0xbdeca2d3	-0.11554494
165	0xbde72b06	-0.11287503
166	0x3d5b2db6	0.05351039
167	0xbf0fe870	-0.56214046
168	0x3e438b1d	0.19096036
169	0xbeef2fd7	-0.46716186
170	0xbec6632d	-0.3874754
171	0xbf025569	-0.50911576
172	0x3f08982f	0.53357214
173	0xbf147302	-0.5798799
174	0x3eeca8ee	0.46222633
175	0xbca8a41b	-0.020586064
176	0xbda746cb	-0.081677996
177	0x3ec0334c	0.37539136
178	0xbd77a245	-0.060457487
179	0x3ec318a8	0.3810475
180	0x3ecad77f	0.39617535
181	0xbf081b64	-0.53166795
182	0x3e6acd89	0.22929968
183	0x3decc14c	0.11560306
184	0x3dfa4678	0.12220472
185	0x3da6f6f3	0.081525706
186	0x3e28475e	0.16433474
187	0xbe96d4c6	-0.29459208
188	0xbda074b8	-0.07834762
189	0x3f13ede4	0.5778487
190	0x3ed2f7bb	0.41204628
191	0xbcbc76d6	-0.023005884

layers.0.bias f4 [12]
0	0x3dec54d9	0.11539621
1	0x3e09cb51	0.13456465
2	0xbcb87eb5	-0.022521356
3	0xbe02f7cb	-0.12789838
4	0x3d63eaa1	0.05564368
5	0xbda7031b	-0.08154889
6	0x3d2d6a8c	0.04233794
7	0x3d9c8ae0	0.07643676
8	0xbe9efd1d	-0.31052485
9	0xbcc7661c	-0.024340682
10	0x3e271210	0.16315484
11	0xbb8e3bc5	-0.004340621

layers.2.weight f4 [8, 12]
0	0xbf2a3e8d	-0.66501695
1	0x3cff58a8	0.031170204
2	0xbefad2c3	-0.48988923
3	0x3f0fc5a6	0.5616096
4	0xbedccdaf	-0.43125674
5	0xbd8d4146	-0.068972155
6	0xbe249f3b	-0.16076367
7	0x3df88bbb	0.121360265
8	0x3f28dd1f	0.65962404
9	0x3d251593	0.040303778
10	0x3ec1d15d	0.37855044
11	0x3f0bda44	0.5462992
12	0x3f0f98de	0.5609263
13	0xbe7b8853	-0.24563722
14	0xbe401085	-0.18756302
15	0x3e8fd24a	0.28090125
16	0xbe484580	-0.19557762
17	0x3e7f47a4	0.24929672
18	0xbe23dabb	-0.16001408
19	0xbef7efca	-0.48425132
20	0x3e8300e5	0.2558662
21	0x3c2b9498	0.010472439
22	0x3e42af2e	0.19012138
23	0x3f32c7da	0.698362
24	0x3ef5d3f5	0.48013273
25	0x3f291009	0.6604009
26	0x3d13c120	0.03607285
27	0xbf1bccd2	-0.60859406
28	0xbefdfae0	-0.49605465
29	0xbee0e390	-0.43923616
30	0xbf1f8c88	-0.6232381
31	0xbeb5c833	-0.35504302
32	0xbf26a3fc	-0.6509397
33	0xbf2724b7	-0.652904
34	0xbed8567e	-0.42253488
35	0xbf331718	-0.69957113
36	0xbede27ef	-0.43389842
37	0x3e89e798	0.26934505
38	0x3f179fad	0.5922802
39	0xbe575b2b	-0.21030872
40	0xbe4e8c57	-0.20170723
41	0x3ec15df9	0.37767008
42	0xbeb09a69	-0.34492806
43	0xbeab1322	-0.33413035
44	0x3edf100e	0.43566936
45	0xbf1da287	-0.6157612
46	0x3db2263f	0.08698701
47	0x3f208432	0.62701714
48	0x3df856c7	0.121259265
49	0x3e44e889	0.1922933
50	0xbed2d91e	-0.41181272
51	0xbc1fd626	-0.009755647
52	0x3d1f4082	0.03887988
53	0x3e31b6a1	0.17354824
54	0x3e8cab2e	0.2747435
55	0x3f1d4af1	0.61442477
56	0xbf0a2c06	-0.53973424
57	0x3cada2ad	0.021195734
58	0xbeb4e33d	-0.3532962
59	0xbf0f32a7	-0.55936664
60	0xbd8b86a0	-0.06812787
61	0xbf1f9f4b	-0.62352437
62	0x3ef7f242	0.48427016
63	0x3da19084	0.07888892
64	0xbec409ad	-0.38288632
65	0x3ebc4a62	0.367755
66	0xbf2b67e7	-0.6695542
67	0xbe8d0f08	-0.2755053
68	0xbe0d1057	-0.13775764
69	0xbf1b345c	-0.6062677
70	0xbee63757	-0.44964096
71	0xbdedb496	-0.1160671
72	0x3f002ac5	0.5006526
73	0x3f22248d	0.6333702
74	0x3ecc8b32	0.39949948
75	0xbedaef1c	-0.4276055
76	0xbf045ee1	-0.51707274
77	0x3f1d10a4	0.61353517
78	0x3e461b39	0.19346322
79	0x3aa4e7af	0.0012581254
80	0x3dc34905	0.09535412
81	0xbf15701b	-0.58374184
82	0xbe7bf046	-0.24603376
83	0x3f21d4b7	0.632152
84	0xbe327557	-0.17427574
85	0xbd10c4d9	-0.03534398
86	0xbf164e55	-0.58713275
87	0xbeca86ea	-0.39556056
88	0xbc6c90de	-0.014438836
89	0xbee0e23c	-0.43922603
90	0xbdb306f2	-0.08741559
91	0x3e93db53	0.2887827
92	0xbf3111aa	-0.6916758
93	0x3e570f4a	0.21001926
94	0xbeef6207	-0.46754476
95	0xbeb02cde	-0.3440923

layers.2.bias f4 [8]
0	0xbd2ea44a	-0.042637147
1	0xbe8be0f8	-0.27320075
2	0xbdf04560	-0.11731982
3	0xbe0bec4b	-0.13664357
4	0xbe7091f1	-0.23493172
5	0x3e64c265	0.2233978
6	0xbe8da1bb	-0.27662453
7	0x3da02834	0.07820168

layers.4.weight f4 [4, 8]
0	0x3e977ca2	0.29587275
1	0x3f2f09cb	0.6837432
2	0xbe6f6968	-0.23380053
3	0xbeb36d82	-0.35044485
4	0xbf4878aa	-0.7830912
5	0xbee08432	-0.43850857
6	0xbf3b9732	-0.7327758
7	0xbe4aeea7	-0.19817601
8	0x3e5472de	0.20746943
9	0xbf4b41a7	-0.7939705
10	0x3f40e31d	0.7534655
11	0x3f0a3cf8	0.5399928
12	0xbf5908e5	-0.84779197
13	0xbed24981	-0.41071704
14	0x3e8e4866	0.2778961
15	0xbe3632e4	-0.1779285
16	0xbca2aa54	-0.01985661
17	0xbeb786db	-0.35845074
18	0x3f31ea61	0.6949826
19	0xbef696db	-0.4816197
20	0x3f37da4d	0.71817476
21	0x3d6217bb	0.055198412
22	0x3e3e5af2	0.1858938
23	0x3f2cf550	0.6756182
24	0xbceac973	-0.028660512
25	0xbee346ba	-0.44389898
26	0xbe0d4515	-0.13795884
27	0x3f35a609	0.70956475
28	0xbf24801d	-0.64257985
29	0x3e4fc103	0.20288472
30	0xbf50df80	-0.81591034
31	0x3ee88399	0.454129

layers.4.bias f4 [4]
0	0xbcb9e46d	-0.02269193
1	0xbb722bda	-0.0036952407
2	0x3d2e3128	0.042527348
3	0x3d3c837d	0.046023834
