DQN/4x4_map/final_weights2024-07-06 16:56:40.697539_1500.pth (torch, 4095 bytes, 6 tensors)

layers.0.weight f4 [12, 16]
000000 ae 72 fd be 3c d9 91 be 51 84 3d 3f 34 52 9b bd
       -0.49501556 -0.2848605 0.74030024 -0.075840384
000010 1d 8c d2 be 7c ff 17 3e 13 a7 fd bd e9 c9 ab 3e
       -0.41122523 0.14843553 -0.123853825 0.33552483
000020 cc 1d 3f 3e 21 bf 1e 3f 5b 6f 1b bf a6 74 5e 3d
       0.1866371 0.6201039 -0.6071679 0.054310463
000030 b3 ec bd 3e e2 e0 ad be 6d c2 b8 be db 73 15 3f
       0.3709465 -0.33960634 -0.36085835 0.58379906
000040 9a 8a 6a be 5f 82 b2 be 9b 55 0d bf 18 6c b5 bd
       -0.22904435 -0.3486509 -0.5520875 -0.08858508
000050 c7 b5 9f 3e 53 cf 0a 3e 38 d7 3a 3e e1 c7 ed be
       0.31193373 0.1355565 0.18246162 -0.46441558
000060 2d 67 12 bf 07 3e 95 3b 4b 7b 32 3f 86 e2 b4 3e
       -0.57188684 0.0045545134 0.6971938 0.35329074
000070 f7 8c b6 be 90 f6 4c be f4 21 e7 be a9 41 97 be
       -0.35654423 -0.20015931 -0.45143092 -0.29542282
000080 03 ff 36 3e ef 56 de 3e fe 41 ac 3e d7 ed 0f bf
       0.17870717 0.434257 0.33644098 -0.5622229
000090 be 2d e2 3e 30 22 dd be 2c 4e ee 3e e4 a9 04 3f
       0.44175524 -0.43190145 0.46544015 0.5182173
0000a0 68 6b ba 3d d9 8a 0f 3f e8 92 05 bf d2 83 6f be
       0.09102517 0.5607124 -0.52177286 -0.23390129
0000b0 ba de b6 3e 6b 24 26 be 6c a1 2c be bc ad 82 be
       0.35716802 -0.1622483 -0.16858453 -0.25523174
0000c0 64 86 ca 3e 38 d2 b4 3e b7 76 3b 3e f3 31 b0 be
       0.39555657 0.35316634 0.18307005 -0.34413108
0000d0 fc 82 fe be ff a5 87 3d bf 72 28 3e 40 c3 90 be
       -0.49709308 0.06623458 0.16450022 -0.28273964
0000e0 db 73 2f be 78 3b 53 3e 03 cf 47 3d af 56 e2 3c
       -0.17134039 0.20628154 0.048781406 0.027629225
0000f0 76 52 1a be 87 f7 0d bf d4 66 13 bf d3 df 95 be
       -0.15070519 -0.5545582 -0.5757878 -0.29272327
000100 5c 60 9f be 77 5f e6 3e f1 8b 36 be cc 52 75 be
       -0.31128204 0.4499471 -0.17826821 -0.23957366
000110 e9 33 11 3f 30 6c 5a 3e 3e 06 1d 3f 41 c9 97 be
       0.56719834 0.21330333 0.6133765 -0.29645732
000120 8b 11 80 be 0d ec 14 3d 7f e6 d0 be 7b f5 cc be
       -0.25013384 0.036357928 -0.40800855 -0.40031037
000130 47 4c f2 bc 7a 5b 65 be 36 0b eb be d6 f9 b9 3e
       -0.029577387 -0.22398177 -0.4590699 0.36323422
000140 5c b0 f6 3e b9 33 6c 3d ba 5c da bd 99 35 11 bf
       0.48181427 0.057666514 -0.106622174 -0.5672241
000150 29 67 64 be 92 a4 1f 3e 69 04 d3 3e 8d 8b 9e bd
       -0.22304977 0.15590122 0.41214302 -0.07741461
000160 e6 e9 77 be 40 ce ab 3e ee b2 f9 be d9 28 c6 3e
       -0.24210319 0.33555794 -0.48769325 0.3870304
000170 4c 46 73 be 8e 8f 19 3c 75 d6 f7 bd eb 0c 98 3d
       -0.23757285 0.009372605 -0.12101451 0.07424339
000180 d7 7f 3d be f4 bd 27 3f d9 e0 1c bd ec 47 da 3e
       -0.18505798 0.6552422 -0.03830037 0.42632997
000190 9a 23 fb 3e 53 c0 98 be f7 b9 e4 be ad 8c fb 3e
       0.490506 -0.29834232 -0.4467313 0.49130765
0001a0 d6 f4 c3 3e 09 66 ef be d7 c9 70 bd a8 97 1a bf
       0.38272732 -0.46757534 -0.05878624 -0.6038766
0001b0 61 54 00 bf 02 c3 82 3e 08 3d 98 bd 45 ed 04 3e
       -0.5012875 0.25539404 -0.07433516 0.12981136
0001c0 3c a2 1b bc e0 43 c3 3e 0d 4e 07 3f 47 81 9a be
       -0.009499129 0.38137722 0.5285347 -0.30176756
0001d0 1b bc d1 bd 74 96 16 3e 28 51 6a be c3 b1 dd be
       -0.102409564 0.14705831 -0.22882521 -0.43299684
0001e0 9a 3b c0 3d 70 d8 e0 3c ca 08 0c bf 46 41 ab be
       0.09386368 0.027446955 -0.5470091 -0.33448237
0001f0 1a 30 17 3f cd 11 8c 3f 13 24 c6 3e 63 0c b8 3e
       0.5905777 1.0942932 0.38699397 0.3594695
000200 5b bd 1b 3f bc dd a7 bd fa 83 ac be 9e 83 22 3e
       0.6083581 -0.08196589 -0.3369444 0.1587052
000210 e1 77 a2 be 07 98 d3 be 9e 3e 48 be a8 98 03 3e
       -0.31732085 -0.41326925 -0.19555137 0.12851202
000220 5d e8 2a 3e 35 8f 73 be 35 89 b8 be b4 2c a9 3d
       0.16690202 -0.23785098 -0.3604218 0.082604796
000230 c9 ce b8 be 5e 21 cc be b7 64 26 3e 0f ad d2 bd
       -0.36095265 -0.39869207 0.16249357 -0.102869146
000240 d0 95 c8 3e e9 c1 07 3f 9a e3 7d 3e e9 33 e5 3e
       0.39176798 0.5303026 0.24793854 0.44766167
000250 6d e3 35 3e 9a 20 1d 3c e4 6e 36 bd 6f e5 09 3c
       0.17762537 0.009590292 -0.044539347 0.008416518
000260 89 01 81 3e 74 9a 13 3f bf 82 22 be 3c 89 84 be
       0.25196484 0.5765755 -0.15870188 -0.25885952
000270 ab da 17 be e9 79 97 be 43 60 b8 bb 98 09 ea 3e
       -0.14829509 -0.29585198 -0.0056267097 0.45710444
000280 09 0f 15 3f 40 cf 60 3e 75 bd e6 be fd fd b1 be
       0.58226067 0.2195406 -0.4506642 -0.3476409
000290 5f 71 5b bd 06 2b e7 bd aa 09 ba 3e 70 e8 0f bf
       -0.053574916 -0.11287503 0.36335498 -0.56214046
0002a0 d3 6b be 3e d7 2f ef be 2d 63 c6 be 69 55 02 bf
       0.37191638 -0.46716186 -0.3874754 -0.50911576
0002b0 2f 98 08 3f 02 73 14 bf 7d b0 04 3f 1b a4 a8 bc
       0.53357214 -0.5798799 0.518318 -0.020586064
0002c0 33 f9 dc 3d e0 4c 63 3e df 5c 75 3c 1b 57 91 3d
       0.107897185 0.22197294 0.0149757555 0.07096692
0002d0 6a f6 ed 3e 64 1b 08 bf 80 d3 9c 3e 4c c1 ec 3d
       0.46477062 -0.53166795 0.30630112 0.11560306
0002e0 56 83 dd bd fe f5 4b 3d df b6 92 3e c6 d4 96 be
       -0.10816066 0.049795143 0.28655145 -0.29459208
0002f0 b8 74 a0 bd 3e 43 e9 3e 62 ee 39 3f d6 76 bc bc
       -0.07834762 0.45559114 0.7262937 -0.023005884

layers.0.bias f4 [12]
000000 61 06 a7 3e ec 36 49 3e bc aa ac 3d de 75 55 be
       0.32622054 0.19649857 0.084310025 -0.20845744
000010 76 ee ad 3c 67 22 91 bd e5 88 f6 bc 2c 0a 0a 3f
       0.021231871 -0.0708664 -0.030094573 0.5392177
000020 4b 4d 28 be 5c 27 57 3b f6 a6 ae 3e 8f 65 23 3e
       -0.16435735 0.0032829857 0.34111756 0.1595671

layers.2.weight f4 [8, 12]
000000 4d ff 3c bf 10 15 92 be 0f d5 25 bf ed 65 36 3f
       -0.7382706 -0.28531694 -0.64778227 0.71249276
000010 05 87 2b bf f4 b9 20 3e 68 43 b4 be 39 3b 2e 3f
       -0.670029 0.15695935 -0.35207677 0.68059117
000020 c7 e2 7c 3f e4 bf b9 3d f5 e3 e1 3e 95 00 0c 3f
       0.98783535 0.09069803 0.4411923 0.5468839
000030 2f a4 05 3f 92 00 90 be ff dc a0 be fc 0b 7f 3e
       0.5220365 -0.28125435 -0.31418607 0.24906915
000040 a7 14 62 be 18 b9 6d 3e d2 27 44 be a4 75 17 bf
       -0.2207819 0.23215139 -0.19155815 -0.5916388
000050 62 bc 47 3e 4a 00 73 bb f2 2f 55 3e 37 89 1d 3f
       0.19505456 -0.003707903 0.20819071 0.615375
000060 02 47 ef 3e 9d 69 10 3f 5e 7a b7 3c 31 ab 1f bf
       0.46733862 0.56411153 0.022397216 -0.6237059
000070 e0 fa fd be 90 e3 e0 be 52 6c 23 bf ec 5c bd be
       -0.49605465 -0.43923616 -0.6383716 -0.36984956
000080 fc a3 26 bf 2f fe 2a bf 7e 56 d8 be f8 b5 4f bf
       -0.6509397 -0.66794103 -0.42253488 -0.8113704
000090 24 d7 03 bf 63 b1 32 3f 08 4f 1b 3f 36 5b f6 bd
       -0.51500154 0.6980192 0.6066747 -0.12029116
0000a0 26 56 10 be ab 2d e5 3e ad c9 9c be c1 63 ba be
       -0.14095363 0.44761404 -0.30622616 -0.3640423
0000b0 02 63 41 3f ef 26 0d bf 8f 49 d9 3e 3a 0b 5f 3f
       0.755417 -0.5513753 0.42438933 0.87126505
0000c0 81 52 30 3d 59 33 59 3e b9 32 ed be fd ea 6e bc
       0.04304743 0.21210994 -0.4632776 -0.014582393
0000d0 dd 7a e9 3c e5 ea 37 3e 7e f7 ba 3e f3 c3 3d 3f
       0.028500969 0.17960699 0.36516947 0.7412712
0000e0 dc 39 0c bf c4 7e 03 be 8f de c5 be 3c 24 c4 be
       -0.54775786 -0.12841326 -0.3864636 -0.38308895
0000f0 bc 6f 13 be 7a a2 1a bf 0d 42 ce 3e b2 01 d9 3b
       -0.14398092 -0.6040417 0.40284768 0.0066225166
000100 4c 73 b9 be fa a2 c6 3e 22 47 2d bf ac 3a c6 be
       -0.36220777 0.38796216 -0.67686665 -0.38716638
000110 57 10 0d be 89 3f 2f bf 57 37 e6 be 37 0c d9 bd
       -0.13775764 -0.6845632 -0.44964096 -0.10598033
000120 ff e8 24 3f 52 a3 09 3f f2 c4 09 3f fb 00 c2 be
       0.64418024 0.5376483 0.5381614 -0.37891373
000130 c7 59 f1 be b4 62 37 3f 41 7d 19 3e 9b 20 83 3e
       -0.47138807 0.71634984 0.14989187 0.25610813
000140 29 5e 05 3e e3 10 ee be 1c 3a f6 be d3 6e 28 3f
       0.130242 -0.4649726 -0.4809121 0.65794104
000150 63 a1 d2 3e d7 9c a4 3a 63 0c af be 43 7d 7e be
       0.41138753 0.0012558949 -0.34189138 -0.24852471
000160 cc 0b 90 be b4 cf c5 be 71 e7 84 bc 19 c0 29 3f
       -0.28134 -0.38635027 -0.016223641 0.6630874
000170 cc e1 fa be 40 bb 02 3f aa df a1 be 08 84 0a be
       -0.49000394 0.5106697 -0.31615955 -0.13526928

layers.2.bias f4 [8]
000000 22 7c 1c 3d 64 7d 31 be 3e eb 42 be 87 9f fc 3d
       0.03820432 -0.17332989 -0.1903505 0.12335115
000010 67 4f 26 be 3c ad 1a 3e 0b 72 07 be 0f 39 eb 3e
       -0.16241227 0.15105146 -0.13227098 0.4594197

layers.4.weight f4 [4, 8]
000000 5a 7a 1f 3c 10 02 43 3f da 44 2e be 04 c1 53 3e
       0.009733761 0.7617502 -0.17018452 0.20679098
000010 0f 55 8f bf 89 25 b8 be 8a 20 ef bd 09 c6 02 3f
       -1.1197833 -0.35966137 -0.11676128 0.5108343
000020 0d b8 92 3e 03 5d 42 bf 4e f5 3e 3f 62 ba ce 3e
       0.28656045 -0.75923175 0.74593055 0.40376574
000030 6d 1c 58 bd 54 7d a6 be 08 f9 69 3f 21 19 0f bd
       -0.052761484 -0.32517493 0.91395617 -0.034936074
000040 5b f5 00 3f 4f 2a a2 be 0a 58 1d 3f ff b3 d5 be
       0.5037438 -0.31672904 0.6146246 -0.4173889
000050 65 f0 57 bf c7 eb 02 3e 23 f8 ba bc 94 2b f8 3e
       -0.8435119 0.12785254 -0.022823399 0.48470747
000060 1b 02 85 be 90 f6 db be d8 c8 9e bd 7d 56 8b 3f
       -0.2597817 -0.4296155 -0.07753152 1.0885769
000070 33 41 02 3f f9 d7 82 3e f3 c7 78 bf cb 02 93 3f
       0.50880736 0.255554 -0.971801 1.1485227

layers.4.bias f4 [4]
000000 72 2c b0 3e 75 37 d4 bd e8 11 94 3e b7 e9 78 be
       0.3440891 -0.1036214 0.2891991 -0.24307905
