DQN/4x4_map/final_weights2024-07-06 16:56:40.697539_3000.pth (torch, 4095 bytes, 6 tensors)

layers.0.weight f4 [12, 16]
0	0xbefd72ae	-0.49501556
1	0xbe94c9d9	-0.29060248
2	0x3f4d2578	0.801353
3	0xbe8ff474	-0.2811619
4	0xbed28c1d	-0.41122523
5	0x3e17ff7c	0.14843553
6	0xbdfeefad	-0.12448058
7	0x3eabc9e9	0.33552483
8	0x3d3c95e4	0.046041384
9	0x3f1074e7	0.5642838
10	0xbf1b6f5b	-0.6071679
11	0x3d5e74a6	0.054310463
12	0x3ebdecb3	0.3709465
13	0xbeb04bb1	-0.34432748
14	0xbeb8c26d	-0.36085835
15	0x3f1573db	0.58379906
16	0xbe6a8a9a	-0.22904435
17	0xbeb2825f	-0.3486509
18	0xbf0d559b	-0.5520875
19	0xbd81aeab	-0.063321434
20	0x3e9f1516	0.31070775
21	0x3e0acf53	0.1355565
22	0x3e1c676a	0.15273824
23	0xbeedc7e1	-0.46441558
24	0xbf12672d	-0.57188684
25	0xbc14ca56	-0.009081444
26	0x3f4449cd	0.7667511
27	0x3eb4e286	0.35329074
28	0xbeb68cf7	-0.35654423
29	0xbe4cf690	-0.20015931
30	0xbee721f4	-0.45143092
31	0xbe9741a9	-0.29542282
32	0x3e69fa16	0.22849306
33	0x3e993f4d	0.29931107
34	0x3e8d4bc6	0.27596873
35	0xbf0fedd7	-0.5622229
36	0x3edd059e	0.43168348
37	0xbedd2230	-0.43190145
38	0x3ef5ac6c	0.4798311
39	0x3f04a9e4	0.5182173
40	0xbd64d3ff	-0.055866238
41	0x3f17047e	0.5899123
42	0xbf0592e8	-0.52177286
43	0xbe6f83d2	-0.23390129
44	0x3eb6deba	0.35716802
45	0xbe26246b	-0.1622483
46	0xbe2ca16c	-0.16858453
47	0xbe82adbc	-0.25523174
48	0x3e9318cd	0.2872986
49	0x3eb8cbfe	0.36093134
50	0x3e3b76b7	0.18307005
51	0xbeb031f3	-0.34413108
52	0xbefe82fc	-0.49709308
53	0x3d87a5ff	0.06623458
54	0x3e2872bf	0.16450022
55	0xbe90c340	-0.28273964
56	0xbe2f73db	-0.17134039
57	0x3e51c735	0.20486148
58	0x3d47cf03	0.048781406
59	0x3ce256af	0.027629225
60	0xbe1a5276	-0.15070519
61	0xbf0df787	-0.5545582
62	0xbf1366d4	-0.5757878
63	0xbe95dfd3	-0.29272327
64	0xbe9f605c	-0.31128204
65	0x3ec7d07b	0.39026245
66	0xbe368bf1	-0.17826821
67	0xbe7552cc	-0.23957366
68	0x3f01d324	0.507128
69	0x3e5a6c30	0.21330333
70	0x3f25c6c3	0.6475641
71	0xbe97c941	-0.29645732
72	0xbe80118b	-0.25013384
73	0x3dd25ecc	0.10271987
74	0xbed0e67f	-0.40800855
75	0xbeccf57b	-0.40031037
76	0xbcf24c47	-0.029577387
77	0xbe655b7a	-0.22398177
78	0xbeeb0b36	-0.4590699
79	0x3eb9f9d6	0.36323422
80	0x3ee1054a	0.43949348
81	0x3da8e934	0.08247605
82	0xbdda5cba	-0.106622174
83	0xbf113599	-0.5672241
84	0xbe646729	-0.22304977
85	0x3e1fa492	0.15590122
86	0x3eddf593	0.4335142
87	0xbd9e8b8d	-0.07741461
88	0xbe77e9e6	-0.24210319
89	0x3ebb0a54	0.36531317
90	0xbef9b2ee	-0.48769325
91	0x3ec628d9	0.3870304
92	0xbe73464c	-0.23757285
93	0x3c198f8e	0.009372605
94	0xbdf7d675	-0.12101451
95	0x3d980ceb	0.07424339
96	0xbe3d7fd7	-0.18505798
97	0x3f218338	0.6309085
98	0xbd1ce0d9	-0.03830037
99	0x3efd9a57	0.49531814
100	0x3ef77f1e	0.4833917
101	0xbe98c053	-0.29834232
102	0xbee4b9f7	-0.4467313
103	0x3efb8cad	0.49130765
104	0x3ec55e74	0.38548625
105	0xbeef6609	-0.46757534
106	0xbd70c9d7	-0.05878624
107	0xbf1a97a8	-0.6038766
108	0xbf005461	-0.5012875
109	0x3e99770a	0.29973632
110	0xbd983d08	-0.07433516
111	0x3e04ed45	0.12981136
112	0xbc8a12e2	-0.016854707
113	0x3f087afc	0.5331266
114	0x3f2f0291	0.6836329
115	0xbe0f8a37	-0.14017569
116	0xbd997cb0	-0.074944854
117	0x3e169674	0.14705831
118	0xbe84ec9a	-0.25961763
119	0xbeddb1c3	-0.43299684
120	0x3e969772	0.2941242
121	0xbd233a19	-0.039850328
122	0xbee85f4a	-0.453852
123	0xbeab4146	-0.33448237
124	0x3f17301a	0.5905777
125	0x3f9ab780	1.208725
126	0x3ea159d2	0.3151384
127	0x3eb80c63	0.3594695
128	0x3f0ccca1	0.5499974
129	0xbda7ddbc	-0.08196589
130	0xbeac83fa	-0.3369444
131	0x3e1f4af9	0.15555944
132	0xbea277e1	-0.31732085
133	0xbed39807	-0.41326925
134	0xbe483e9e	-0.19555137
135	0x3e0398a8	0.12851202
136	0x3e1d2fb6	0.15350232
137	0xbe738f35	-0.23785098
138	0xbeb88935	-0.3604218
139	0x3da92cb4	0.082604796
140	0xbeb8cec9	-0.36095265
141	0xbecc215e	-0.39869207
142	0x3e1e060e	0.15431997
143	0xbdd2ad0f	-0.102869146
144	0x3ecacf3c	0.39611232
145	0x3f1177b2	0.56823266
146	0x3e986c6c	0.2977022
147	0x3ec02e3f	0.37535283
148	0x3e4d6cd3	0.20061044
149	0x3c1d209a	0.009590292
150	0xbd366ee4	-0.044539347
151	0x3c09e56f	0.008416518
152	0x3e786e23	0.24260764
153	0x3f09077c	0.53527045
154	0xbe2282bf	-0.15870188
155	0xbe84893c	-0.25885952
156	0xbe17daab	-0.14829509
157	0xbe9779e9	-0.29585198
158	0xbd25f2a0	-0.04051459
159	0x3eea0998	0.45710444
160	0x3f061960	0.5238247
161	0x3e4f660d	0.20253773
162	0xbee6bd75	-0.4506642
163	0xbebaa7e9	-0.3645623
164	0xbdd260de	-0.10272382
165	0xbde72b06	-0.11287503
166	0x3eb88c11	0.36044362
167	0xbf0fe870	-0.56214046
168	0x3ec50ff0	0.38488722
169	0xbeef2fd7	-0.46716186
170	0xbec6632d	-0.3874754
171	0xbf025569	-0.50911576
172	0x3f08982f	0.53357214
173	0xbf147302	-0.5798799
174	0x3f794f3d	0.97386533
175	0xbca8a41b	-0.020586064
176	0x3dfe328c	0.12411985
177	0x3e67bf1f	0.226315
178	0x3d491992	0.04909665
179	0x3da1663d	0.078808285
180	0x3ee6bfd5	0.4506823
181	0xbf081b64	-0.53166795
182	0x3e96ba9d	0.2943925
183	0x3decc14c	0.11560306
184	0xbd9d5240	-0.076817036
185	0x3d6e4124	0.05816759
186	0x3e57276d	0.21011133
187	0xbe96d4c6	-0.29459208
188	0xbda074b8	-0.07834762
189	0x3eeac884	0.45856106
190	0x3f36f193	0.71462363
191	0xbcbc76d6	-0.023005884

layers.0.bias f4 [12]
0	0x3ea0cf85	0.31408325
1	0x3e497a33	0.19675522
2	0x3d9cbd47	0.07653289
3	0xbe95ec50	-0.29281855
4	0x3d06f3f9	0.032947514
5	0xbd2b645f	-0.04184377
6	0xbc64aeaa	-0.013957659
7	0x3f12609b	0.5717866
8	0xbe6adbaa	-0.22935358
9	0x3c848e9f	0.016181288
10	0x3eb0bde5	0.34519878
11	0x3e148f4d	0.1450779

layers.2.weight f4 [8, 12]
0	0xbf09b78a	-0.53795683
1	0xbeccd379	-0.4000509
2	0xbf1f45cb	-0.6221587
3	0x3f2272b6	0.63456285
4	0xbf29d294	-0.6633694
5	0x3d97e759	0.07417173
6	0xbe6a4cd1	-0.22880866
7	0x3f505052	0.8137256
8	0x3f667e6e	0.90036666
9	0x3e078030	0.13232493
10	0x3ef9f61c	0.4882058
11	0x3f1153de	0.56768596
12	0x3f05a42f	0.5220365
13	0xbe900092	-0.28125435
14	0xbea369a6	-0.3191654
15	0x3e7cb4f4	0.24678403
16	0xbe6214a7	-0.2207819
17	0x3e6a198b	0.22861306
18	0xbe4427d2	-0.19155815
19	0xbf2332dc	-0.6374948
20	0x3e4120da	0.18860188
21	0xbbdfe426	-0.0068326173
22	0x3e3b3fe2	0.18286088
23	0x3f0f07d5	0.55871326
24	0x3eef4702	0.46733862
25	0x3f0ba8a5	0.54554206
26	0x3cb77a5e	0.022397216
27	0xbf1fab31	-0.6237059
28	0xbefdfae0	-0.49605465
29	0xbee0e390	-0.43923616
30	0xbf236c52	-0.6383716
31	0xbebd5cec	-0.36984956
32	0xbf26a3fc	-0.6509397
33	0xbf2afe2f	-0.66794103
34	0xbed8567e	-0.42253488
35	0xbf5476cc	-0.8299377
36	0xbf096a97	-0.5367827
37	0x3f2827fa	0.65686
38	0x3f150e1a	0.5822464
39	0xbd1d8a91	-0.038462225
40	0xbe2ae29b	-0.16688006
41	0x3ee01561	0.4376631
42	0xbe9d292f	-0.30695483
43	0xbeaad916	-0.33368748
44	0x3f50cb54	0.81560254
45	0xbf06cb9c	-0.52654433
46	0x3edc6a96	0.4305007
47	0x3f5d093b	0.8634221
48	0x3d75cf7a	0.06001232
49	0x3e22b1aa	0.15888086
50	0xbef629c3	-0.48078737
51	0x3d27c03f	0.040954825
52	0x3c7df001	0.015499116
53	0x3e39d058	0.18145883
54	0x3ed92891	0.42413762
55	0x3f49c6e1	0.7881909
56	0xbf069d01	-0.5258332
57	0xbdbfd2d6	-0.09366386
58	0xbeb1a0a4	-0.34692872
59	0xbeb3bbfa	-0.35104352
60	0xbe136fbc	-0.14398092
61	0xbf1aa27a	-0.6040417
62	0x3ece420d	0.40284768
63	0x3bd901b2	0.0066225166
64	0xbeb9734c	-0.36220777
65	0x3ec6a2fa	0.38796216
66	0xbf2d4722	-0.67686665
67	0xbec63aac	-0.38716638
68	0xbe0d1057	-0.13775764
69	0xbf2f3f89	-0.6845632
70	0xbee63757	-0.44964096
71	0xbdd90c37	-0.10598033
72	0x3f2775f7	0.65414375
73	0x3f1805a0	0.59383583
74	0x3f0e5eba	0.5561329
75	0xbee7080b	-0.45123324
76	0xbee5eddd	-0.44908038
77	0x3f3942fb	0.7236783
78	0x3e26e8e8	0.16299784
79	0x3e700b14	0.23441726
80	0x3d40b30e	0.04704576
81	0xbee3becd	-0.44481507
82	0xbf0174ad	-0.5056866
83	0x3f266640	0.6499977
84	0x3ec50f44	0.3848821
85	0x3df13319	0.11777324
86	0xbeb5c945	-0.3550512
87	0xbe27e472	-0.16395739
88	0xbe979279	-0.29603937
89	0xbee1c0a0	-0.44092274
90	0x3c8581e6	0.016297292
91	0x3f29708d	0.66187364
92	0xbecdc9be	-0.4019298
93	0x3f03e9d6	0.5152868
94	0xbeb064d5	-0.3445193
95	0xbdbbb01c	-0.091644496

layers.2.bias f4 [8]
0	0x3d99f8ff	0.07518195
1	0xbe4569ff	-0.19278716
2	0xbe55f100	-0.20892715
3	0x3de76f38	0.1130051
4	0xbe1385a4	-0.14406449
5	0x3e1aad3c	0.15105146
6	0xbdea692c	-0.11445841
7	0x3f054ecb	0.52073354

layers.4.weight f4 [4, 8]
0	0xbc564040	-0.013076842
1	0x3f41e93e	0.75746524
2	0xbe2e44da	-0.17018452
3	0x3e0b551c	0.13606685
4	0xbfa38939	-1.2776252
5	0xbeb82589	-0.35966137
6	0xbed022da	-0.4065159
7	0x3f7dc8a9	0.9913431
8	0x3eab39fb	0.33442673
9	0xbf421332	-0.7581054
10	0x3f3a2ac6	0.7272152
11	0x3ed6ab8c	0.41927755
12	0xbe1ed56d	-0.15511103
13	0xbea67d54	-0.32517493
14	0x3f7834ba	0.96955454
15	0xbdc37052	-0.09542908
16	0x3f1188c0	0.5684929
17	0xbea24f36	-0.31701058
18	0x3f188631	0.5957976
19	0xbf0577d7	-0.52135986
20	0xbf5467b2	-0.82970726
21	0x3e02ebc7	0.12785254
22	0x3e2e6f4a	0.17034641
23	0x3e75fda9	0.24022545
24	0xbe96c362	-0.2944594
25	0xbedbe422	-0.4294749
26	0xbd9f7955	-0.07786814
27	0x3f83e25a	1.0303452
28	0x3f228ad5	0.6349309
29	0x3e82d7f9	0.255554
30	0xbf3cbf59	-0.73729473
31	0x3f4efab4	0.8085129

layers.4.bias f4 [4]
0	0x3e3fb48c	0.18721217
1	0xbe041402	-0.12898257
2	0x3eb4d707	0.35320303
3	0xbe3f8789	-0.18704046
