DQN/4x4_map/final_weights2024-07-06 16:56:40.697539_2000.pth (torch, 4095 bytes, 6 tensors)

layers.0.weight f4 [12, 16]
00000000: ae72 fdbe b206 87be 1dfa 4a3f 6037 ccbd
00000010: 1d8c d2be 7cff 173e 61bf fdbd e9c9 ab3e
00000020: 9c5e 1b3e 7ff6 163f 5b6f 1bbf a674 5e3d
00000030: b3ec bd3e b14b b0be 6dc2 b8be db73 153f
00000040: 9a8a 6abe 5f82 b2be 9b55 0dbf 6cba 97bd
00000050: af14 9c3e 53cf 0a3e 33e8 2c3e e1c7 edbe
00000060: 2d67 12bf a334 103a 2ea3 383f 86e2 b43e
00000070: f78c b6be 90f6 4cbe f421 e7be a941 97be
00000080: 1709 483e 6cb0 d03e 5056 ac3e d7ed 0fbf
00000090: 462c e03e 3022 ddbe 5b95 ef3e e4a9 043f
000000a0: cc8b 853d 915e 123f e892 05bf d283 6fbe
000000b0: bade b63e 6b24 26be 6ca1 2cbe bcad 82be
000000c0: 29d6 be3e 8905 ab3e b776 3b3e f331 b0be
000000d0: fc82 febe ffa5 873d bf72 283e 40c3 90be
000000e0: db73 2fbe 35c7 513e 03cf 473d af56 e23c
000000f0: 7652 1abe 87f7 0dbf d466 13bf d3df 95be
00000100: 5c60 9fbe 8af9 d53e f18b 36be cc52 75be
00000110: e48b 0f3f 306c 5a3e 6277 213f 41c9 97be
00000120: 8b11 80be 7241 863d 7fe6 d0be 7bf5 ccbe
00000130: 474c f2bc 7a5b 65be 360b ebbe d6f9 b93e
00000140: ee8f f43e b933 6c3d ba5c dabd 9935 11bf
00000150: 2967 64be 92a4 1f3e 26e2 d53e 8d8b 9ebd
00000160: e6e9 77be 821b b13e eeb2 f9be d928 c63e
00000170: 4c46 73be 8e8f 193c 75d6 f7bd eb0c 983d
00000180: d77f 3dbe cbfe 223f d9e0 1cbd 22ca eb3e
00000190: 1e2d fc3e 53c0 98be f7b9 e4be ad8c fb3e
000001a0: 2028 c53e 0966 efbe d7c9 70bd a897 1abf
000001b0: 6154 00bf 59b2 883e 083d 98bd 45ed 043e
000001c0: 90be 39bc 7468 dd3e 72dd 083f 78f2 8cbe
000001d0: 58ef c5bd 7496 163e 9124 76be c3b1 ddbe
000001e0: c2b7 183e 5c1e 013b ca08 0cbf 4641 abbe
000001f0: 1a30 173f 0f79 963f 24db a73e 630c b83e
00000200: 1389 1b3f bcdd a7bd fa83 acbe f94a 1f3e
00000210: e177 a2be 0798 d3be 9e3e 48be a898 033e
00000220: b62f 1d3e 358f 73be 3589 b8be b42c a93d
00000230: c9ce b8be 5e21 ccbe 0e06 1e3e 0fad d2bd
00000240: a136 c53e 77a9 0d3f eb9d 893e 37b4 dd3e
00000250: 8955 373e 9a20 1d3c e46e 36bd 6fe5 093c
00000260: c121 7a3e 6dc6 0f3f bf82 22be 3c89 84be
00000270: abda 17be e979 97be 0bdd 42bc 9809 ea3e
00000280: 8751 163f 5621 503e 75bd e6be fdfd b1be
00000290: 2d47 85bd 062b e7bd ec0a b93e 70e8 0fbf
000002a0: 24f2 bb3e d72f efbe 2d63 c6be 6955 02bf
000002b0: 2f98 083f 0273 14bf b2ef 173f 1ba4 a8bc
000002c0: 2ac5 f13d 129d 6e3e cc4d b43c 0b98 623d
000002d0: 714f ea3e 641b 08bf 4ee5 983e 4cc1 ec3d
000002e0: 96ad c7bd abda 5b3d 2426 7a3e c6d4 96be
000002f0: b874 a0bd 255b e93e 864f 443f d676 bcbc
-0.49501556 -0.26372296 0.7928789 -0.099714994 -0.41122523 0.14843553 -0.12390018 0.33552483
0.1517281 0.58969873 -0.6071679 0.054310463 0.3709465 -0.34432748 -0.36085835 0.58379906
-0.22904435 -0.3486509 -0.5520875 -0.07408604 0.3048453 0.1355565 0.16885452 -0.46441558
-0.57188684 0.00055010075 0.7212399 0.35329074 -0.35654423 -0.20015931 -0.45143092 -0.29542282
0.19534718 0.407596 0.336596 -0.5622229 0.43783778 -0.43190145 0.46793637 0.5182173
0.06520805 0.57175547 -0.52177286 -0.23390129 0.35716802 -0.1622483 -0.16858453 -0.25523174
0.37272766 0.3340266 0.18307005 -0.34413108 -0.49709308 0.06623458 0.16450022 -0.28273964
-0.17134039 0.20486148 0.048781406 0.027629225 -0.15070519 -0.5545582 -0.5757878 -0.29272327
-0.31128204 0.41791946 -0.17826821 -0.23957366 0.5607283 0.21330333 0.6307279 -0.29645732
-0.25013384 0.065554515 -0.40800855 -0.40031037 -0.029577387 -0.22398177 -0.4590699 0.36323422
0.4776606 0.057666514 -0.106622174 -0.5672241 -0.22304977 0.15590122 0.417741 -0.07741461
-0.24210319 0.345913 -0.48769325 0.3870304 -0.23757285 0.009372605 -0.12101451 0.07424339
-0.18505798 0.63670033 -0.03830037 0.46052653 0.49253172 -0.29834232 -0.4467313 0.49130765
0.38507175 -0.46757534 -0.05878624 -0.6038766 -0.5012875 0.26698568 -0.07433516 0.12981136
-0.011336938 0.43243754 0.534629 -0.2752874 -0.09664792 0.14705831 -0.24037386 -0.43299684
0.14913848 0.0019701933 -0.5470091 -0.33448237 0.5905777 1.1755694 0.3278438 0.3594695
0.60756034 -0.08196589 -0.3369444 0.15555944 -0.31732085 -0.41326925 -0.19555137 0.12851202
0.15350232 -0.23785098 -0.3604218 0.082604796 -0.36095265 -0.39869207 0.15431997 -0.102869146
0.3851824 0.5533671 0.26878294 0.43301556 0.17903723 0.009590292 -0.044539347 0.008416518
0.24426939 0.5616215 -0.15870188 -0.25885952 -0.14829509 -0.29585198 -0.011893521 0.45710444
0.5871815 0.20325217 -0.4506642 -0.3476409 -0.06507716 -0.11287503 0.36141145 -0.56214046
0.36708176 -0.46716186 -0.3874754 -0.50911576 0.53357214 -0.5798799 0.5935012 -0.020586064
0.11805184 0.23302105 0.022009753 0.05532078 0.45763734 -0.53166795 0.29862446 0.11560306
-0.09749906 0.053675335 0.24428612 -0.29459208 -0.07834762 0.4557735 0.76683843 -0.023005884

layers.0.bias f4 [12]
00000000: 12cb a63e 2dfd 3d3e 0672 b03d 89c7 72be
00000010: 2280 233d 28bf 78bd b51f 91bc 88e6 083f
00000020: a7ff 2fbe 1fd9 c33b cdf0 ae3e d4b0 1f3e
0.32576805 0.1855361 0.08615498 -0.23708929 0.03991712 -0.060729176 -0.017715314 0.5347676
-0.17187367 0.0059768106 0.3416809 0.15594798

layers.2.weight f4 [8, 12]
00000000: 8051 35bf dfee a2be bb44 23bf 03a7 323f
00000010: 461e 2abf a63f 143e 2caa 8dbe d735 413f
00000020: 467d 793f 3af9 c13d 9560 d13e 3837 0c3f
00000030: 2fa4 053f 9200 90be a669 a3be f4b4 7c3e
00000040: a714 62be 8b19 6a3e d227 44be c263 1fbf
00000050: da20 413e 26e4 dfbb 31a9 453e 374f 133f
00000060: 0247 ef3e 9d69 103f 5e7a b73c 31ab 1fbf
00000070: e0fa fdbe 90e3 e0be 526c 23bf ec5c bdbe
00000080: fca3 26bf 2ffe 2abf 7e56 d8be f8b5 4fbf
00000090: d965 05bf 41a4 2e3f 0ada 183f b157 b4bd
000000a0: bbbe 1bbe a942 e23e 5df0 9dbe 73e4 b2be
000000b0: ce26 473f ff6e 09bf 2bb6 dd3e 6181 603f
000000c0: 3029 013d 7f9a 6f3e 29a7 f2be 9266 67ba
000000d0: 72d6 113d e5ea 373e 71f1 d13e 2e77 403f
000000e0: 019d 06bf a8a7 00be 7bce bbbe 17fc b3be
000000f0: bc6f 13be 7aa2 1abf 0d42 ce3e b201 d93b
00000100: 4c73 b9be faa2 c63e 2247 2dbf ac3a c6be
00000110: 5710 0dbe 893f 2fbf 5737 e6be 370c d9bd
00000120: 57a8 243f b037 0d3f 2082 0a3f d5d6 cabe
00000130: 68fd edbe fca0 373f 30a5 1a3e f9cd 793e
00000140: c567 a73d 7652 edbe f559 f7be 570e 273f
00000150: 0ef2 d23e 84c2 363d 2cb0 b4be b022 58be
00000160: 699a 97be 1738 d2be 4651 92bc db2f 273f
00000170: a248 f0be 7d3d 023f 6660 a4be 4324 01be
-0.70827484 -0.3182287 -0.6377675 0.6978609 -0.66452444 0.14477405 -0.27668893 0.7547278
0.9745678 0.09471364 0.40894 0.5477176 0.5220365 -0.28125435 -0.3191654 0.24678403
-0.2207819 0.22861306 -0.19155815 -0.62261593 0.18860188 -0.0068326173 0.19302823 0.5754275
0.46733862 0.56411153 0.022397216 -0.6237059 -0.49605465 -0.43923616 -0.6383716 -0.36984956
-0.6509397 -0.66794103 -0.42253488 -0.8113704 -0.5210853 0.6821938 0.597077 -0.08805788
-0.15209477 0.44191483 -0.30847445 -0.34939918 0.77793586 -0.5368499 0.43303046 0.87697417
0.03153342 0.2339878 -0.47393158 -0.0008827235 0.0356049 0.17960699 0.41004518 0.75181854
-0.5258332 -0.12563956 -0.3668097 -0.35153267 -0.14398092 -0.6040417 0.40284768 0.0066225166
-0.36220777 0.38796216 -0.67686665 -0.38716638 -0.13775764 -0.6845632 -0.44964096 -0.10598033
0.64319366 0.551631 0.54104805 -0.3961703 -0.46482396 0.7173002 0.15102077 0.24394979
0.08174089 -0.46351975 -0.4831082 0.65256256 0.41200298 0.0446191 -0.35290658 -0.21106982
-0.29609993 -0.41058418 -0.01786102 0.65307397 -0.46930414 0.50875074 -0.32104796 -0.12611489

layers.2.bias f4 [8]
00000000: 862a 7f3d ab56 3dbe 3eeb 42be 42f0 fd3d
00000010: d3bc 1cbe 3cad 1a3e 2086 07be 117f f13e
0.062296413 -0.18490092 -0.1903505 0.12399341 -0.15306406 0.15105146 -0.13234758 0.47167256

layers.4.weight f4 [4, 8]
00000000: 592e 93bc 3ee9 413f da44 2ebe 421b 673e
00000010: 8ff3 89bf 8925 b8be 73b5 4fbe 247d 1f3f
00000020: 7146 833e 3213 42bf 4ef5 3e3f bdaa d33e
00000030: 691f 74bd 547d a6be 00ec 723f 3030 6cbd
00000040: 0a19 0a3f b452 a2be 0a58 1d3f 2f63 e3be
00000050: f47a 6fbf c7eb 023e 5980 733d 9138 db3e
00000060: 80e0 91be 1fe5 dbbe d8c8 9ebd e9d0 873f
00000070: 2b17 023f f9d7 823e 0f62 66bf 546d 8b3f
-0.017966436 0.75746524 -0.17018452 0.22568992 -1.0777453 -0.35966137 -0.20284061 0.62300324
0.2563968 -0.7581054 0.74593055 0.413412 -0.059600268 -0.32517493 0.9489136 -0.057663143
0.53944457 -0.31703722 0.6146246 -0.4441161 -0.93546987 0.12785254 0.059448574 0.42816594
-0.28491592 -0.42948243 -0.07753152 1.0610629 0.508166 0.255554 -0.89993376 1.0892739

layers.4.bias f4 [4]
00000000: e5a9 a93e 0c3f bfbd 2312 a33e b480 74be
0.33137432 -0.09338197 0.31849775 -0.23877221
