DQN/8x8_map/final_weights2024-07-06 15:38:48.494434_1000.pth (torch, 6399 bytes, 6 tensors)

layers.0.weight f4 [12, 64]
000000 ee 93 81 be a7 27 f4 3b 41 7a 3d be ff a6 01 bc
       -0.25308174 0.007451016 -0.18503667 -0.00791335
000010 b5 ee 59 3e 85 05 c1 bd a8 a5 c5 bd 8d 8e 92 3d
       0.21282466 -0.09424881 -0.09650737 0.07156096
000020 4a 8b e6 bd 87 67 d7 bc 44 74 fd 3e 7f 8a 00 be
       -0.11257036 -0.026294483 0.49502766 -0.12552832
000030 52 4e 60 be bd 77 2f be 2d da ad bd 96 c5 14 be
       -0.21904877 -0.1713552 -0.08488879 -0.14528498
000040 ff b3 22 be db 80 09 bc 16 ce fe 3d 68 b3 c8 bd
       -0.15888976 -0.008392538 0.124416515 -0.09799844
000050 b3 96 73 be 61 70 c5 bd ec 52 04 be 6d 0f cc bd
       -0.23787956 -0.09640575 -0.12922257 -0.0996388
000060 66 6c 8d be e4 4c 4a 3e 80 5c 66 be 3a 2e 74 be
       -0.27621764 0.19755894 -0.22496223 -0.23845759
000070 89 15 80 be 40 dd 02 3e 9a c1 3c be 66 69 01 be
       -0.2501643 0.12779713 -0.18433228 -0.12637863
000080 a7 b0 ce 3d fd 83 83 3c 39 9d 5b 3e 04 da 94 be
       0.100922875 0.016054148 0.21446694 -0.29072583
000090 ee d5 60 be c2 b9 ec bd 5f a4 03 3f 8d 6d 1e 3d
       -0.21956608 -0.11558868 0.51422685 0.038678695
0000a0 e0 7d 6a be 67 4d fb 3a 64 83 73 be f5 63 89 bd
       -0.2289958 0.0019172848 -0.2378059 -0.067085184
0000b0 af 6d ac bd 07 74 15 3e f7 39 c2 3d 83 af 5a bd
       -0.08419358 0.14595042 0.09483712 -0.053390037
0000c0 41 05 95 3c 69 03 b5 bd 61 ad 8e 3e 92 e0 ef 3d
       0.018190982 -0.08838541 0.27866653 0.11712755
0000d0 a5 65 a8 3d cd 6a f4 bd 06 bf 85 3e 5a 0f 35 bd
       0.08222512 -0.11934433 0.26122302 -0.044204094
0000e0 ea 20 f4 bd 97 b2 39 3f fd 75 b4 3d 31 02 9c 3e
       -0.1192034 0.7253813 0.08811567 0.30470422
0000f0 90 79 b4 3d 9d c3 d5 bd 2e ff cf bb cf 7f 86 3e
       0.08812249 -0.10437701 -0.0063475585 0.26269385
000100 f4 80 a3 be b2 42 f8 3c be aa ce 3d 50 a8 95 be
       -0.3193432 0.03030524 0.1009116 -0.29229975
000110 43 8f 26 ba b0 1f a2 be 7e d1 54 3e 77 83 2a be
       -0.0006353745 -0.316648 0.2078304 -0.16651712
000120 6c a0 65 be 92 a3 a8 be 8c 1d df 3c af 07 02 3f
       -0.22424477 -0.32937294 0.027235769 0.50792974
000130 19 ee 8e 3e 8d c9 83 3e d8 d2 a1 be 68 7e 70 bd
       0.2791603 0.2573971 -0.31606174 -0.0587143
000140 e3 21 07 3f f6 c8 76 3e e1 80 6b 3e 0a d1 95 3d
       0.5278608 0.24100098 0.22998382 0.07315262
000150 ff d2 19 be 92 f9 a2 3e f8 ae 4d 3d 1f a4 1b 3d
       -0.15021895 0.31831032 0.05021569 0.037998315
000160 84 25 80 3e 1a 6d 9b 3e 6c eb 95 be 8e 01 ea bd
       0.25028622 0.30356675 -0.29281175 -0.11426078
000170 d2 c2 18 3e cf 65 92 3b 11 4e 9a be e3 56 50 be
       0.14918068 0.004467703 -0.30137685 -0.20345645
000180 7c 49 a3 be 72 48 04 3f ca 7e e4 3e e5 17 2e 3e
       -0.31892002 0.5167304 0.44627982 0.17001303
000190 51 bb a5 be 96 11 a4 be 9e 28 57 3d b6 ea ad 3b
       -0.32369474 -0.32044667 0.05252897 0.0053075207
0001a0 f4 78 cb 3d 4e 44 3b bd 68 29 05 3e b6 c6 a1 be
       0.09935179 -0.045719437 0.13004076 -0.31596917
0001b0 db 25 27 3e f0 af 06 3f c6 bb 1c 3e 57 a7 cf bc
       0.16323034 0.5261221 0.15306005 -0.025348349
0001c0 13 ec 4c 3e 2a 04 88 be d2 47 85 be 5b 94 16 3f
       0.2001193 -0.26565677 -0.26031357 0.5882012
0001d0 d2 2e 18 3e 3c 6e d2 3e b5 ee 86 3b 95 1f 93 be
       0.1486161 0.41099727 0.0041178116 -0.28735033
0001e0 cf 67 98 be b3 54 ed 3d d5 f7 a8 3e 18 0f 84 3d
       -0.297667 0.11588421 0.3300158 0.064481914
0001f0 60 d4 88 bd ff de cf bd 12 14 09 be 9c d5 e7 3d
       -0.06681132 -0.10149955 -0.13386562 0.1132004
000200 ba f3 26 bd 7a 0c 49 be 85 f8 d0 3c 78 3c 50 be
       -0.04075978 -0.19633666 0.025509128 -0.20335567
000210 42 ca 55 be 87 01 37 be ac f2 c6 3d 4a 06 6e 3d
       -0.20877936 -0.17871676 0.09714255 0.058111466
000220 bf 3d 52 be 2f 40 50 be cb aa 52 be b0 08 84 be
       -0.20531367 -0.20336984 -0.20572965 -0.25787878
000230 2d 29 79 be 1c bb 9a 3d 39 eb 16 be aa 29 be 3e
       -0.24332114 0.075552195 -0.14738168 0.37141162
000240 9d 5a 62 be 30 4b 89 3d f7 73 53 be d6 0a 3b 3e
       -0.22104879 0.06703794 -0.20649706 0.18265852
000250 bb 19 a6 3d 3c cc 40 bd 05 07 d7 3c 11 75 35 3e
       0.081103764 -0.047069773 0.026248464 0.17720439
000260 54 ad 3e 3e 10 d4 36 3e a9 ad 49 be a8 41 51 be
       0.18620807 0.17854333 -0.19695152 -0.20435202
000270 5a ab 0a be 2b 78 a8 bb 6e 72 88 be 0f 4c 30 3e
       -0.13541928 -0.0051412783 -0.26649803 0.17216514
000280 a9 98 55 be ae 39 21 be ae 7a 5b be e4 00 8d be
       -0.20859016 -0.1574466 -0.21433517 -0.27539742
000290 e5 c3 a9 bd 1d dc 1d 3e b7 16 db 3e bf 96 99 3e
       -0.08289317 0.15415998 0.42790768 0.29997823
0002a0 84 21 4f be 60 0b 9b be 29 db ed 3d 02 cb 4c 3e
       -0.20227629 -0.30282116 0.11614067 0.19999316
0002b0 2f 96 86 be 21 20 39 3f 11 8b 84 3e 4a 63 52 3e
       -0.26286456 0.7231465 0.2588735 0.20545688
0002c0 f4 02 51 be a3 87 80 3e 3b 6c cc 3d db 14 5a 3d
       -0.20411283 0.25103483 0.09981581 0.053242546
0002d0 fa 09 54 be e6 a4 20 3f d3 2a 56 be 9d 58 c0 3e
       -0.20706931 0.62751615 -0.20914774 0.37567607
0002e0 7b ff 5f be 1d 82 c9 3c f8 d9 8f 3d 12 2e a6 3d
       -0.21874802 0.024598176 0.07023996 0.08114256
0002f0 bf a1 03 3e c6 80 64 3e 31 e5 4e be 02 c4 93 be
       0.1285467 0.22314748 -0.20204617 -0.2886048
000300 08 ec f0 bd 16 d0 dc 3d 9e 16 a5 bd 3b 68 7f 3d
       -0.117637694 0.10781877 -0.080609545 0.06235526
000310 18 d8 e7 bd a9 ba c9 3d c2 78 00 3e 8d 65 79 3c
       -0.113205135 0.09850056 0.12546065 0.0152219655
000320 55 44 20 be 6a 19 80 be 87 ac 43 3e 04 f0 37 be
       -0.15651067 -0.2501939 0.19108783 -0.17962652
000330 57 28 40 3e 4e a6 96 be 4c cd 6d 3c 29 cf a5 3e
       0.18765388 -0.29423755 0.014514279 0.32384613
000340 dd 80 48 3e f8 ea f1 3c 4b d5 96 be 1f cb 96 3e
       0.19580407 0.029530987 -0.29459605 0.29451844
000350 74 84 56 bd 17 7c 92 be b9 ea 49 3e 7d 2c ff bd
       -0.05237241 -0.28610298 0.19718446 -0.12459657
000360 ac 58 e6 bc e5 c2 29 3e ac 57 59 be 99 d2 5d be
       -0.028118454 0.16578253 -0.2122485 -0.21662368
000370 6c e8 73 3c 13 df 27 bd f4 7a 2b 3f 4b 7b 83 be
       0.014886957 -0.040984225 0.66984487 -0.25680003
000380 7a d9 8e bc 96 72 0b be ed 22 1a be be 8a 8f be
       -0.017437685 -0.1361793 -0.15052386 -0.2803554
000390 36 b1 d0 3c 9f 44 06 3c b4 89 84 be ee 3c 9d 3e
       0.025475126 0.0081950715 -0.2588631 0.30710548
0003a0 e6 60 68 3c d6 b8 68 3d 6f 16 38 be 02 1b 75 3c
       0.014183259 0.0568169 -0.17977308 0.014960052
0003b0 cc 18 1e 3d 90 97 eb 3d ed 33 74 be e4 24 e4 3e
       0.038597867 0.11503518 -0.23847933 0.44559395
0003c0 3c 5e c5 3b 9c cc 16 3e 93 ad b5 3e 45 bd 0f 3e
       0.0060231965 0.1472649 0.3548399 0.14037044
0003d0 45 69 74 be 57 5d ab 3d e5 f1 54 be 25 09 bc 3c
       -0.23868282 0.083674125 -0.207954 0.02295358
0003e0 2e 16 5b be 77 79 89 bd 40 f7 63 bc 11 0a 16 bd
       -0.2139518 -0.06712621 -0.013913929 -0.036630694
0003f0 ac 1f 46 bd 46 d4 c5 3c 81 cc cb 3e d3 2a 36 3e
       -0.04837005 0.024149071 0.39804462 0.17789774

layers.0.bias f4 [12]
000000 8b a5 5a bb e6 99 90 3e 82 8c 44 3e f7 f4 51 bd
       -0.0033362831 0.28242415 0.19194224 -0.051259007
000010 aa 1a 14 3e 27 7e 57 bc 74 6a 87 bd 13 76 eb bd
       0.14463297 -0.013152636 -0.06612101 -0.1149713
000020 a4 b0 5d bc 6d aa b1 bb f2 b1 87 bd 1d 8a 30 bd
       -0.013530884 -0.0054219277 -0.06625737 -0.043100465

layers.2.weight f4 [8, 12]
000000 69 e4 26 bf cc 14 9a 3e be 74 57 bf a9 af 8e bf
       -0.65192276 0.30093992 -0.8416251 -1.1147357
000010 35 b5 fd 3e 45 1c 3e bb 45 02 ca 3d d3 08 77 be
       0.49552312 -0.002900855 0.09863714 -0.2412446
000020 40 2f ff be 2a 29 46 3e 06 bd 07 be d7 1b fa 3e
       -0.49840736 0.1935164 -0.132557 0.48849365
000030 f5 7e 4a bf 9a 3d f2 3e d5 0a 7c 3f 38 93 da be
       -0.7909997 0.47312623 0.9845403 -0.42690444
000040 b9 28 2b 3e 1e c8 c5 be 5a f4 e3 3d 96 8c 20 bd
       0.16714753 -0.3862924 0.11130591 -0.039196573
000050 29 fd 2b 3e a1 84 64 3f 69 77 0e 3f ee 0e 82 3f
       0.16795792 0.89264876 0.55650955 1.0160806
000060 bc 09 0e bf ae 6c da 3d 20 b9 bb 3e 2d 43 91 3e
       -0.55483603 0.1066526 0.36664677 0.28371564
000070 d1 a2 8f 3f ee 43 e3 3e 64 8a 2f 3f 96 c4 cd be
       1.1221563 0.44387764 0.6857054 -0.40189046
000080 c4 7a 37 bd 3b 68 83 be b4 77 2f bf 52 fc 8b be
       -0.044794813 -0.2566546 -0.6854203 -0.27340943
000090 e6 70 31 3d 55 e6 29 3f 84 f0 b3 3e 87 9c 24 bf
       0.04332056 0.66367084 0.35144436 -0.6430134
0000a0 48 52 49 bd bf 8d 4c 3f 6a e7 84 be 2b b6 bf 3e
       -0.049150735 0.7990379 -0.25957805 0.3744367
0000b0 e3 dc d3 3d 3d b5 ab be be a0 80 3d ff 79 fa 3b
       0.10344865 -0.3353671 0.06280659 0.0076439376
0000c0 f5 a8 62 3d d0 15 69 bf 54 4b 0e bf 42 a5 16 3e
       0.05533691 -0.9104891 -0.5558369 0.14711478
0000d0 63 aa 5d 3e ea f6 55 3f 00 2c 8a be 3c f7 f4 3e
       0.21647029 0.83579886 -0.26986694 0.47844875
0000e0 b4 ea 3d 3f 26 14 0d 3f cf 18 16 3e 6b 3b 3e 3f
       0.74186254 0.5510887 0.14657901 0.74309415
0000f0 05 8c a0 bd 2b 5e 92 3e b0 34 3e 3f f4 a4 87 3e
       -0.078392066 0.2858747 0.74299145 0.26493037
000100 33 3d 6c be d9 2b ca 3e 91 d7 3e 3e 68 d6 24 be
       -0.2307022 0.39486578 0.1863692 -0.16097414
000110 b0 d5 3b 3f 7f f2 0d bf ea 21 b3 3e 08 65 41 3f
       0.73372936 -0.55448145 0.34986812 0.75544786
000120 0a c2 0a 3d 43 4d 1d bf 69 fa 78 bf 8d e6 bc 3d
       0.033876456 -0.6144602 -0.97257096 0.092236616
000130 b2 5c 1e bf a8 ef 5b be 5b 85 96 3e 62 3d 33 3d
       -0.6186019 -0.2147814 0.29398617 0.04375971
000140 c7 33 04 3f be e6 8d 3e bd cc 9b 3e 3f e4 4a bd
       0.51641506 0.27715105 0.3042964 -0.04953408
000150 36 d0 71 bf ab 53 70 3e 69 92 18 3f ff 83 a2 3e
       -0.9445833 0.23469417 0.59598404 0.3174133
000160 c4 06 2c be f9 9d 44 bf 08 e9 8c bf 8a 52 24 bf
       -0.16799456 -0.7680355 -1.1008615 -0.64188445
000170 e3 9b 0f 3f ba 94 2f be ab 98 14 bf 87 c9 9d 3e
       0.5609724 -0.17146578 -0.5804545 0.30817816

layers.2.bias f4 [8]
000000 5b 3d 5b 3e cd ad 54 be 40 51 34 3f db 29 2c be
       0.21410124 -0.20769425 0.7043648 -0.16812842
000010 03 a4 31 3e 86 af 7a bc 6b 1c c3 3e da f3 53 3d
       0.17347722 -0.015300637 0.3810762 0.051746227

layers.4.weight f4 [4, 8]
000000 c5 80 12 be 59 dd b9 be da f0 41 3f 5b e3 e4 3e
       -0.14306934 -0.36301687 0.75758135 0.44704708
000010 2f ca 8a bf e7 9e 4f bf 25 80 3a 3c 9b af 5b bf
       -1.0842952 -0.8110184 0.011383091 -0.8581483
000020 2c c7 a5 bf cd 0a 75 3f 09 54 ad 3e 2a 3c 1d bf
       -1.2951407 0.95719606 0.33853176 -0.6141993
000030 c4 16 e8 3c 70 c2 46 bf 8d e4 9a 3e f8 23 e6 3e
       0.028331168 -0.7764044 0.30252495 0.44949317
000040 71 96 03 bf 58 0c 98 bf 57 9c 49 3f 66 27 ac be
       -0.5140143 -1.1878767 0.7875418 -0.3362381
000050 a3 bc 0e bf 45 52 bf be 16 d6 f9 be a8 da 46 3f
       -0.55756587 -0.37367454 -0.48796147 0.7767739
000060 ba 2a 10 3f e7 eb e7 bd 12 e5 82 3e 42 89 16 bf
       0.56315196 -0.11324292 0.25565392 -0.5880319
000070 f3 49 7a bf f9 c1 61 3f 06 f5 86 3f 63 74 17 3f
       -0.9776909 0.88186604 1.0543525 0.5916197

layers.4.bias f4 [4]
000000 a2 65 67 3e 56 db c7 3e 59 15 b5 3e cd b9 92 bd
       0.22597364 0.39034528 0.3536785 -0.07164345
