DQN/8x8_map/final_weights2024-07-06 15:38:48.494434_2500.pth (torch, 6399 bytes, 6 tensors)

layers.0.weight f4 [12, 64]
000000 ee 93 81 be 47 e5 bc ba 41 7a 3d be 21 6e 0e be
       -0.25308174 -0.0014411592 -0.18503667 -0.13909198
000010 c8 29 ed 3d 62 60 f9 bd 7d 55 02 be e0 73 24 bd
       0.11580235 -0.12176587 -0.12727924 -0.04014957
000020 bd a8 0b be 52 4e 01 be 4a c8 f9 3e 7f 8a 00 be
       -0.13638587 -0.12627533 0.4878562 -0.12552832
000030 52 4e 60 be bd 77 2f be f3 00 eb bd 96 c5 14 be
       -0.21904877 -0.1713552 -0.114747904 -0.14528498
000040 ff b3 22 be ec 28 00 be 7a 5e a9 bc 68 b3 c8 bd
       -0.15888976 -0.1251561 -0.020674933 -0.09799844
000050 b3 96 73 be 42 de ff bd ec 52 04 be f6 08 0a be
       -0.23787956 -0.12493564 -0.12922257 -0.13479981
000060 66 6c 8d be 23 94 22 3e 80 5c 66 be 3a 2e 74 be
       -0.27621764 0.15876822 -0.22496223 -0.23845759
000070 89 15 80 be 40 dd 02 3e 9a c1 3c be 66 69 01 be
       -0.2501643 0.12779713 -0.18433228 -0.12637863
000080 4c 24 04 bd 82 ff 0d be 4c ae 44 3e 04 da 94 be
       -0.032261178 -0.13867 0.19207114 -0.29072583
000090 ee d5 60 be c3 0b 06 be 77 c9 c0 3e b6 aa 03 bd
       -0.21956608 -0.13090424 0.37653705 -0.032145225
0000a0 e0 7d 6a be 67 4d fb 3a 64 83 73 be 84 99 c5 3c
       -0.2289958 0.0019172848 -0.2378059 0.024121054
0000b0 13 b8 02 be 82 15 31 3e f7 39 c2 3d c0 f7 01 be
       -0.12765531 0.17293361 0.09483712 -0.12692165
0000c0 b7 af f4 3d 69 03 b5 bd d0 84 97 3e 9a 2d 26 3e
       0.119475774 -0.08838541 0.29593515 0.16228333
0000d0 a5 65 a8 3d ae 90 09 be 06 bf 85 3e 0c 5d be bd
       0.08222512 -0.13434097 0.26122302 -0.09295091
0000e0 4f 6f 04 be af b4 41 3f 33 6b f3 3d 31 02 9c 3e
       -0.12933086 0.75666326 0.11885681 0.30470422
0000f0 dc b2 58 3e 96 85 0c be bc 5f e3 bc cf 7f 86 3e
       0.2116198 -0.13722834 -0.02775561 0.26269385
000100 78 79 b5 be 0a 65 71 3c 41 75 39 3e f0 37 b7 be
       -0.35444236 0.014733562 0.18111135 -0.35784864
000110 a4 cd d6 bb 2d bb a9 be b5 9c 3d 3e bc 5f 3d be
       -0.006555276 -0.33150616 0.1851681 -0.18493551
000120 15 2e 84 be df 16 b4 be 16 05 6c bd 52 7a ea 3e
       -0.25816408 -0.351737 -0.057622038 0.45796448
000130 9f c0 aa 3e 4e a3 80 3e 97 e4 7e be 4a f3 21 bd
       0.33350083 0.25124592 -0.24891888 -0.03953866
000140 93 8d f5 3e 9d a5 8f 3e 13 d1 a1 3e 0a d1 95 3d
       0.47959575 0.2805604 0.31604823 0.07315262
000150 49 f8 ec bc 09 14 a4 3e b6 84 bc 3d 16 3c 82 bd
       -0.028926985 0.32046536 0.09205 -0.06359117
000160 33 dd 8f 3e 2d 91 93 3e 6a 49 b4 be 1c 76 32 be
       0.2809845 0.28821698 -0.3521226 -0.17427868
000170 3b 82 5b 3e cf 65 92 3b c4 00 b7 be f8 f9 80 be
       0.21436398 0.004467703 -0.35742772 -0.2519071
000180 7c 49 a3 be fe 25 fa 3e 08 8a fa 3e e5 17 2e 3e
       -0.31892002 0.4885711 0.48933434 0.17001303
000190 68 8f b5 be 77 66 b7 be 2c f2 13 3e 68 7a 1e 3d
       -0.35460973 -0.35820362 0.1444785 0.038690954
0001a0 3c ad ad bd 4e 44 3b bd 68 29 05 3e b5 de aa be
       -0.084803075 -0.045719437 0.13004076 -0.33373037
0001b0 54 34 48 3e 84 5a ff 3e c6 bb 1c 3e 95 c0 a3 3c
       0.19551212 0.49873745 0.15306005 0.019989291
0001c0 1d 55 80 3e 2a 04 88 be d3 76 6b be 09 59 0b 3f
       0.25064936 -0.26565677 -0.22994547 0.5443273
0001d0 d2 2e 18 3e 5e bf 01 3f b5 ee 86 3b 5d 26 b5 be
       0.1486161 0.5068263 0.0041178116 -0.3538083
0001e0 ff e4 a6 be 7e 99 cf 3d 66 69 a6 3e 18 0f 84 3d
       -0.32596585 0.10136698 0.32502288 0.064481914
0001f0 a2 41 5e be 5c 4d 7a bd b9 93 5e be 9c d5 e7 3d
       -0.21704724 -0.061108932 -0.21736039 0.1132004
000200 b7 a9 71 3b 32 01 5d be 15 25 0c 3d 1f bc 63 be
       0.003687484 -0.21582487 0.03421505 -0.22239731
000210 42 ca 55 be 0c 97 64 be 01 7c ac 3d 54 27 c8 3d
       -0.20877936 -0.22323245 0.08422089 0.09773126
000220 bf 3d 52 be 47 77 63 be cb aa 52 be b0 08 84 be
       -0.20531367 -0.2221347 -0.20572965 -0.25787878
000230 2d 29 79 be 75 98 96 3d 46 9b 50 be c1 74 c2 3e
       -0.24332114 0.073532976 -0.20371732 0.379797
000240 9d 5a 62 be 50 a1 fc 3d f7 73 53 be d6 0a 3b 3e
       -0.22104879 0.123354554 -0.20649706 0.18265852
000250 00 6e 0c 3e a2 1c b0 bd a7 a9 75 3d f4 b8 3f 3e
       0.13713837 -0.08599211 0.059976246 0.18722898
000260 4b 22 37 3e 04 4b 78 3e d3 4c 62 be 24 b0 64 be
       0.17884175 0.24247366 -0.22099619 -0.22332817
000270 d1 77 04 be 2b 78 a8 bb 6e 72 88 be 11 05 84 3e
       -0.12936331 -0.0051412783 -0.26649803 0.25785115
000280 a9 98 55 be 81 39 21 be ae 7a 5b be e4 00 8d be
       -0.20859016 -0.15744592 -0.21433517 -0.27539742
000290 18 e7 8c bb 7c c8 23 3e df 5c e2 3e 5e 31 b4 3e
       -0.0043000095 0.15994447 0.4421148 0.35193914
0002a0 af 4f 5d be 60 0b 9b be 29 db ed 3d fb aa 20 3d
       -0.21612428 -0.30282116 0.11614067 0.03922556
0002b0 2f 96 86 be ad c7 33 3f 11 8b 84 3e 8e 7f 87 3e
       -0.26286456 0.70226556 0.2588735 0.26464504
0002c0 2d 5b 64 be a3 87 80 3e 08 03 0f 3e a0 7c 09 3d
       -0.22300406 0.25103483 0.13966 0.033566117
0002d0 fa 09 54 be b3 cb 28 3f d3 2a 56 be c7 52 09 3f
       -0.20706931 0.6593582 -0.20914774 0.53641933
0002e0 7b ff 5f be 9e 28 6d 3d 08 2a ec 3c 12 2e a6 3d
       -0.21874802 0.057900064 0.028828636 0.08114256
0002f0 8e c2 cd 3d 5b 6c 8e 3e 6b 8d 5b be 02 c4 93 be
       0.10046874 0.27817044 -0.21440665 -0.2886048
000300 08 ec f0 bd 0a 54 a3 3d 9e 16 a5 bd 4f ed 87 3c
       -0.117637694 0.079750136 -0.080609545 0.01659265
000310 18 d8 e7 bd 78 f4 19 3d 50 68 39 3e 94 07 6f bb
       -0.113205135 0.03758666 0.18106198 -0.0036473023
000320 55 44 20 be 6a 19 80 be 77 c6 47 3e 04 f0 37 be
       -0.15651067 -0.2501939 0.19509302 -0.17962652
000330 12 9b 41 3e 4e a6 96 be 24 8a 94 bb 6b 13 8b 3e
       0.18906811 -0.29423755 -0.004533069 0.27163252
000340 16 d5 24 3e b5 6e ad bb 4b d5 96 be 1f cb 96 3e
       0.16096911 -0.0052927383 -0.29459605 0.29451844
000350 74 84 56 bd 17 7c 92 be 29 b1 55 3e 7d 2c ff bd
       -0.05237241 -0.28610298 0.20868362 -0.12459657
000360 ac 58 e6 bc b4 4b 6d 3e ac 57 59 be 99 d2 5d be
       -0.028118454 0.2317341 -0.2122485 -0.21662368
000370 c0 11 80 bb 13 df 27 bd 3b 0e 3d 3f 4b 7b 83 be
       -0.003908366 -0.040984225 0.7384984 -0.25680003
000380 7a d9 8e bc 96 72 0b be ed 22 1a be be 8a 8f be
       -0.017437685 -0.1361793 -0.15052386 -0.2803554
000390 41 8a a5 3c db f0 31 bc b4 89 84 be 2b 4e 93 3e
       0.020207526 -0.010860647 -0.2588631 0.28770575
0003a0 e6 60 68 3c d6 b8 68 3d 6f 16 38 be de 1c 85 bb
       0.014183259 0.0568169 -0.17977308 -0.004062279
0003b0 59 79 1a 3a fe 96 f3 3d ed 33 74 be 24 1c 00 3f
       0.0005892716 0.11894034 -0.23847933 0.5004294
0003c0 3c 5e c5 3b 9c cc 16 3e cf 4e d8 3e 42 b7 06 3e
       0.0060231965 0.1472649 0.42247626 0.13155845
0003d0 45 69 74 be f2 a9 49 3e e5 f1 54 be b6 17 03 bc
       -0.23868282 0.19693735 -0.207954 -0.008001259
0003e0 2e 16 5b be 77 79 89 bd 40 f7 63 bc 11 0a 16 bd
       -0.2139518 -0.06712621 -0.013913929 -0.036630694
0003f0 ac 1f 46 bd e2 b2 a0 bb 28 83 d6 3e d3 2a 36 3e
       -0.04837005 -0.004904137 0.4189694 0.17789774

layers.0.bias f4 [12]
000000 6c aa ad 3d 4f 98 b0 3e c6 33 3d 3e 18 f4 bc bc
       0.08479771 0.34491202 0.18476781 -0.023065612
000010 2e bc e0 3d de b0 ab 3a 41 91 41 bd a9 da cc bd
       0.109733924 0.0013098975 -0.047257666 -0.100026436
000020 2b 40 73 bd 84 74 d8 38 b8 24 2d bd f1 30 1c bb
       -0.059387367 0.00010321385 -0.042271346 -0.0023832882

layers.2.weight f4 [8, 12]
000000 87 0e 37 bf b7 ad 8a 3e 3b c2 69 bf 7d 3d 95 bf
       -0.7150654 0.2708566 -0.91312 -1.165939
000010 e2 49 1b 3f 20 49 7f 3d ba e5 d6 3d d1 d0 1b be
       0.6065961 0.062325597 0.104930356 -0.15216376
000020 56 84 21 bf c2 a1 74 3e d6 27 fa bd 84 c3 d5 3e
       -0.63092554 0.2388983 -0.12214629 0.4175073
000030 36 c0 34 bf 53 84 1c 3f ba 77 6a 3f 57 9f cd be
       -0.7060579 0.6113941 0.9158894 -0.4016063
000040 44 be 35 3e 68 d9 a5 be 76 cb 04 3e 50 f5 d1 bd
       0.17748362 -0.3239243 0.12968239 -0.10251868
000050 61 59 32 3e 34 20 62 3f 64 ac 17 3f 5e 5a 5e 3f
       0.17416908 0.8833039 0.5924742 0.8685664
000060 fc 30 1f bf 74 48 87 3d 6d 11 c3 3e ce e8 8a 3e
       -0.6218412 0.06605616 0.38099232 0.2713074
000070 6a 6d 8c 3f eb cd 0f 3f 48 a8 2c 3f af 68 dd be
       1.097089 0.5617358 0.67444277 -0.4324393
000080 c9 52 84 bd c5 c8 1a be 76 00 19 bf 73 25 a6 be
       -0.064611025 -0.1511565 -0.5976633 -0.32450446
000090 f9 94 61 bd 6d 8e 1e 3f 12 b0 49 3e dd 8c 19 bf
       -0.055073712 0.61936074 0.19696072 -0.59980565
0000a0 02 51 a4 bd 86 c3 3f 3f cf b1 79 be 52 3e de 3e
       -0.080232635 0.7490772 -0.24384235 0.43406922
0000b0 8a 59 6f bd 34 38 c9 be e2 df 62 bd 38 d9 e3 bd
       -0.058435 -0.39300692 -0.055389293 -0.111254156
0000c0 6c 2c 5b bc 75 e6 6d bf 89 cd 16 bf 79 f1 08 bc
       -0.01337729 -0.92929775 -0.5890737 -0.008358353
0000d0 1f f3 17 3e 7a 26 3f 3f f6 76 3f be 59 e5 f9 3e
       0.14838837 0.74668086 -0.18697724 0.4880779
0000e0 de ab 32 3f 45 df e5 3e c7 13 fe 3b 3a 39 5d 3f
       0.697935 0.44896904 0.0077538225 0.86415446
0000f0 54 bb 74 be da 40 aa 3e d1 1b 39 3f 2b 79 c5 3e
       -0.23899585 0.33252603 0.7230807 0.38569006
000100 7d bc 2f be 8d f9 10 3f 77 8c 9c 3e 2f da 49 be
       -0.17161746 0.56630784 0.30575916 -0.19712137
000110 cd 9e 3f 3f 6c f9 06 bf b7 53 a9 3e c0 c5 16 3f
       0.74851686 -0.5272434 0.33071682 0.5889549
000120 6e 26 d0 bd f0 bd 13 bf 55 f1 83 bf c8 f6 2f 3e
       -0.1016358 -0.57711697 -1.0308024 0.17183983
000130 f1 bc 21 bf fd f5 94 be 94 02 8e 3e bb 75 92 3c
       -0.63178927 -0.29093924 0.27736342 0.017878404
000140 bf 11 11 3f 8f 98 17 3e 75 ba c5 3e 5d 75 16 bf
       0.56667703 0.1480429 0.38618818 -0.5877283
000150 87 70 88 bf c2 ea 43 3e 19 1b 06 3f 5b d9 a9 3e
       -1.0659341 0.19132522 0.523851 0.33173642
000160 47 f8 fd bd 87 7b 3d bf b1 d9 8d bf e0 d9 29 bf
       -0.12400871 -0.7401661 -1.1082059 -0.66348076
000170 18 28 d1 3e 2d 8a 1d be b8 a0 02 bf 77 8e f7 3d
       0.40850902 -0.15384741 -0.5102649 0.1208772

layers.2.bias f4 [8]
000000 47 9d 71 3e 13 eb 9c be 1e 0c 3b 3f b5 b4 c8 bd
       0.23595153 -0.30648097 0.73065364 -0.09800092
000010 01 24 88 3e d2 4d 16 bd 64 a2 d6 3e 18 d9 89 3d
       0.2658997 -0.03669531 0.4192077 0.067308605

layers.4.weight f4 [4, 8]
000000 44 4b 74 be 6f cf c3 be 59 2f 58 3f c6 c1 91 3e
       -0.23856837 -0.38244197 0.84447247 0.2846815
000010 af b2 84 bf d0 5b 5f bf ef 4d 86 3d 4e 38 3f bf
       -1.036703 -0.8724947 0.065578334 -0.7469529
000020 7c 41 a9 bf 92 f2 7d 3f b0 78 cb 3e 12 71 f1 be
       -1.3223109 0.9919826 0.39740515 -0.47156578
000030 73 74 4a 3e d5 af 5a bf 61 41 2c 3e 1c 3f e0 3e
       0.19770984 -0.8542455 0.16821815 0.4379815
000040 e5 ba d7 be 26 5c 96 bf 0b 14 33 3f 25 f5 c5 be
       -0.42134777 -1.1746871 0.6995246 -0.38663593
000050 e1 7f 1e bf 7b 75 89 be 60 bb da be e4 ea 36 3f
       -0.6191388 -0.26847443 -0.4272108 0.71452165
000060 df c6 3b 3f f7 7a 56 bd 5d 88 7d 3e 70 c3 f2 be
       0.7335033 -0.052363362 0.2475905 -0.47414732
000070 29 14 7f bf 50 b9 48 3f d9 f1 a4 3f e0 46 12 3f
       -0.99640137 0.78407764 1.2886306 0.57139397

layers.4.bias f4 [4]
000000 98 4f 68 3e 3a 44 cb 3e a8 14 e7 3e 47 27 2d be
       0.22686613 0.3970049 0.45132947 -0.16909514
