DQN/8x8_map/final_weights2024-07-06 15:38:48.494434_1500.pth (torch, 6399 bytes, 6 tensors)

layers.0.weight f4 [12, 64]
000000 ee 93 81 be c7 29 5e bc 41 7a 3d be db e9 80 bd
       -0.25308174 -0.013559765 -0.18503667 -0.062946044
000010 33 81 03 3e 85 05 c1 bd a8 a5 c5 bd 87 af 93 bc
       0.12842254 -0.09424881 -0.09650737 -0.018028034
000020 4a 8b e6 bd 4e 05 7b bd d2 30 f3 3e 7f 8a 00 be
       -0.11257036 -0.061284356 0.47498184 -0.12552832
000030 52 4e 60 be bd 77 2f be 2d da ad bd 96 c5 14 be
       -0.21904877 -0.1713552 -0.08488879 -0.14528498
000040 ff b3 22 be f5 ba 94 bd 29 1c 69 3d 68 b3 c8 bd
       -0.15888976 -0.07262222 0.05691162 -0.09799844
000050 b3 96 73 be 61 70 c5 bd ec 52 04 be 6d 0f cc bd
       -0.23787956 -0.09640575 -0.12922257 -0.0996388
000060 66 6c 8d be 5d 98 28 3e 80 5c 66 be 3a 2e 74 be
       -0.27621764 0.16464372 -0.22496223 -0.23845759
000070 89 15 80 be 40 dd 02 3e 9a c1 3c be 66 69 01 be
       -0.2501643 0.12779713 -0.18433228 -0.12637863
000080 ec 0c 31 3d f3 ba 88 bd f3 a8 50 3e 04 da 94 be
       0.043225214 -0.06676283 0.20376949 -0.29072583
000090 ee d5 60 be c2 b9 ec bd 5a b8 e6 3e e8 92 a7 3b
       -0.21956608 -0.11558868 0.45062524 0.005113948
0000a0 e0 7d 6a be 67 4d fb 3a 64 83 73 be f5 63 89 bd
       -0.2289958 0.0019172848 -0.2378059 -0.067085184
0000b0 af 6d ac bd d3 87 26 3e f7 39 c2 3d 4b 58 7c bd
       -0.08419358 0.1626275 0.09483712 -0.06160764
0000c0 11 ff c5 3d 69 03 b5 bd c9 44 96 3e a4 5b 40 3e
       0.09667791 -0.08838541 0.29349354 0.18784958
0000d0 a5 65 a8 3d cd 6a f4 bd 06 bf 85 3e 09 1b 82 bd
       0.08222512 -0.11934433 0.26122302 -0.06352813
0000e0 ea 20 f4 bd 63 19 48 3f bb 0c 03 3e 31 02 9c 3e
       -0.1192034 0.7816374 0.12797825 0.30470422
0000f0 ff 5b 3f 3e 9d c3 d5 bd 51 76 ee bc cf 7f 86 3e
       0.18687437 -0.10437701 -0.029109152 0.26269385
000100 f4 80 a3 be 7d 6c 05 3d d3 6d 29 3e 86 79 94 be
       -0.3193432 0.032574166 0.16545801 -0.28998965
000110 42 e1 b1 3c b0 1f a2 be 36 5a 44 3e 4d 9a 35 be
       0.021713857 -0.316648 0.19175038 -0.17734642
000120 c2 61 83 be 92 a3 a8 be 4d 3f 96 3d 01 36 fb 3e
       -0.2566052 -0.32937294 0.073362924 0.4906464
000130 62 3c ac 3e c7 52 90 3e d8 d2 a1 be f7 87 0b bd
       0.33639818 0.28188154 -0.31606174 -0.034065213
000140 6d f6 ff 3e aa 4c 94 3e 7f 54 86 3e 0a d1 95 3d
       0.49992695 0.2896474 0.2623634 0.07315262
000150 98 1e 16 bd 51 26 a6 3e 47 e3 87 3d 30 e8 fb bc
       -0.03665027 0.32451108 0.066351466 -0.030750364
000160 0b 7d 98 3e 63 dc 9e 3e 31 46 a2 be 28 b8 1d be
       0.297829 0.31027517 -0.31694177 -0.15402281
000170 b8 ec 72 3e cf 65 92 3b f3 9e a1 be ed e9 80 be
       0.23723114 0.004467703 -0.3156658 -0.2517847
000180 7c 49 a3 be 7a 35 0b 3f 8e 10 fa 3e e5 17 2e 3e
       -0.31892002 0.54378474 0.48840755 0.17001303
000190 51 bb a5 be 96 11 a4 be 9f 91 b1 3d 99 42 bf 3c
       -0.32369474 -0.32044667 0.08670353 0.023347186
0001a0 48 72 ae 3c 4e 44 3b bd 68 29 05 3e b6 c6 a1 be
       0.021294728 -0.045719437 0.13004076 -0.31596917
0001b0 c7 6c 29 3e 0c a5 09 3f c6 bb 1c 3e 33 00 6f bb
       0.16545402 0.53767467 0.15306005 -0.0036468625
0001c0 43 9d 77 3e 2a 04 88 be 49 09 7b be c1 7d 0c 3f
       0.24181084 -0.26565677 -0.24515261 0.54879385
0001d0 d2 2e 18 3e 12 8d ed 3e b5 ee 86 3b b6 d4 a1 be
       0.1486161 0.4639669 0.0041178116 -0.31607598
0001e0 5d 32 9d be 62 9e a0 3d ea 42 a9 3e 18 0f 84 3d
       -0.30702487 0.07842709 0.33058864 0.064481914
0001f0 91 fd 74 bd 99 e7 ec bd e5 71 34 be 9c d5 e7 3d
       -0.059812132 -0.11567611 -0.17621572 0.1132004
000200 17 1c 1b bc 17 5a 4f be e8 ad 07 3d 78 3c 50 be
       -0.009467146 -0.2024921 0.033124834 -0.20335567
000210 42 ca 55 be 5f 21 4f be 1f 07 94 3d 20 b4 b0 3d
       -0.20877936 -0.20227574 0.07227921 0.08628106
000220 bf 3d 52 be 2f 40 50 be cb aa 52 be b0 08 84 be
       -0.20531367 -0.20336984 -0.20572965 -0.25787878
000230 2d 29 79 be 68 1a 8c 3d 6c 9e 01 be 08 a4 bc 3e
       -0.24332114 0.06840974 -0.1265809 0.36843896
000240 9d 5a 62 be 56 cc c3 3d f7 73 53 be d6 0a 3b 3e
       -0.22104879 0.09560458 -0.20649706 0.18265852
000250 66 27 12 3e 3d b6 92 bd 80 88 32 3d 9b 14 39 3e
       0.14272842 -0.071636654 0.043587208 0.18074267
000260 d2 ef 37 3e 09 ea 66 3e 8f 18 51 be a8 41 51 be
       0.17962578 0.22550215 -0.20419525 -0.20435202
000270 56 45 0e be 2b 78 a8 bb 6e 72 88 be b0 d9 6a 3e
       -0.13893637 -0.0051412783 -0.26649803 0.22934604
000280 a9 98 55 be b0 4d 26 be ae 7a 5b be e4 00 8d be
       -0.20859016 -0.16240573 -0.21433517 -0.27539742
000290 67 b3 00 bd 32 1c 1d 3e dd 89 e0 3e ab 80 a5 3e
       -0.03142109 0.15342787 0.4385518 0.32324728
0002a0 84 21 4f be 60 0b 9b be 29 db ed 3d 40 83 bc 3d
       -0.20227629 -0.30282116 0.11614067 0.092047215
0002b0 2f 96 86 be f5 fa 39 3f 11 8b 84 3e ee 43 72 3e
       -0.26286456 0.72648555 0.2588735 0.23658726
0002c0 f4 02 51 be a3 87 80 3e b4 c7 f3 3d a0 4c 41 3d
       -0.20411283 0.25103483 0.11903325 0.047192216
0002d0 fa 09 54 be e3 38 26 3f d3 2a 56 be f0 c8 fa 3e
       -0.20706931 0.6493055 -0.20914774 0.48981428
0002e0 7b ff 5f be 80 e6 60 3c 97 ee 0f 3d 12 2e a6 3d
       -0.21874802 0.0137268305 0.035139646 0.08114256
0002f0 13 3c 3e 3d 0b b5 6b 3e 31 e5 4e be 02 c4 93 be
       0.04644401 0.23018281 -0.20204617 -0.2886048
000300 08 ec f0 bd 9d 3c af 3d 9e 16 a5 bd eb 4f 71 3d
       -0.117637694 0.08556483 -0.080609545 0.058914106
000310 18 d8 e7 bd d1 28 3c 3d f5 8b 27 3e 8d 65 79 3c
       -0.113205135 0.045937363 0.16361983 0.0152219655
000320 55 44 20 be 6a 19 80 be 97 90 9d 3e 04 f0 37 be
       -0.15651067 -0.2501939 0.30774376 -0.17962652
000330 43 fa 35 3e 4e a6 96 be 4c cd 6d 3c 50 94 8e 3e
       0.17771249 -0.29423755 0.014514279 0.27847528
000340 f5 40 25 3e ad 78 61 3c 4b d5 96 be 1f cb 96 3e
       0.1613806 0.0137616815 -0.29459605 0.29451844
000350 74 84 56 bd 17 7c 92 be 2c 4d 56 3e 7d 2c ff bd
       -0.05237241 -0.28610298 0.20927876 -0.12459657
000360 ac 58 e6 bc 62 11 51 3e ac 57 59 be 99 d2 5d be
       -0.028118454 0.20416787 -0.2122485 -0.21662368
000370 6c e8 73 3c 13 df 27 bd 39 a3 3b 3f 4b 7b 83 be
       0.014886957 -0.040984225 0.73295933 -0.25680003
000380 7a d9 8e bc 96 72 0b be ed 22 1a be be 8a 8f be
       -0.017437685 -0.1361793 -0.15052386 -0.2803554
000390 36 b1 d0 3c 9f 44 06 3c b4 89 84 be e8 1c 93 3e
       0.025475126 0.0081950715 -0.2588631 0.2873299
0003a0 e6 60 68 3c d6 b8 68 3d 6f 16 38 be 02 1b 75 3c
       0.014183259 0.0568169 -0.17977308 0.014960052
0003b0 71 e5 c5 3c 46 76 ea 3d ed 33 74 be b0 64 00 3f
       0.024157258 0.1144834 -0.23847933 0.50153637
0003c0 3c 5e c5 3b 9c cc 16 3e 83 78 b6 3e dd 63 f6 3d
       0.0060231965 0.1472649 0.35638818 0.12030766
0003d0 45 69 74 be 54 2f 23 3e e5 f1 54 be 25 09 bc 3c
       -0.23868282 0.15936023 -0.207954 0.02295358
0003e0 2e 16 5b be 77 79 89 bd 40 f7 63 bc 11 0a 16 bd
       -0.2139518 -0.06712621 -0.013913929 -0.036630694
0003f0 ac 1f 46 bd 46 d4 c5 3c 42 03 da 3e d3 2a 36 3e
       -0.04837005 0.024149071 0.4258061 0.17789774

layers.0.bias f4 [12]
000000 cf 34 5f 3d 85 6a 9b 3e 3c 9e 3a 3e 4f 52 e6 bc
       0.05449372 0.30354705 0.18224424 -0.02811542
000010 25 12 17 3e 4e 34 a4 bb 65 95 6d bd eb 92 d8 bd
       0.14753015 -0.005011118 -0.0580038 -0.105748974
000020 f6 4d 59 bd f6 9a c8 3a 74 95 4c bd 8f f4 ce bb
       -0.053052865 0.0015304971 -0.049947217 -0.0063157747

layers.2.weight f4 [8, 12]
000000 cb 19 3d bf b1 1d 94 3e 40 f9 6e bf c7 1c 8f bf
       -0.7386748 0.28928903 -0.93349075 -1.1180657
000010 c1 f1 14 3f 7f 3a 49 3d db e6 03 3e a5 29 84 be
       0.5818139 0.04912805 0.12881033 -0.25813022
000020 9c da 20 bf fc e6 4b 3e 20 49 c9 bd eb 51 c8 3e
       -0.6283357 0.19912332 -0.098284006 0.39124998
000030 b4 58 39 bf 9e 75 10 3f fc f9 6c 3f c2 02 df be
       -0.72400975 0.5642947 0.92568946 -0.43556792
000040 82 61 1d 3e ee 71 bd be 75 5e ae 3d 6b 13 9e bd
       0.15369228 -0.37000984 0.0851411 -0.077185474
000050 aa be d0 3d 95 85 68 3f 57 6e 14 3f e6 62 7b 3f
       0.10192616 0.9082883 0.57980865 0.9819778
000060 48 22 15 bf b3 08 ac 3d 79 56 bd 3e 06 28 99 3e
       -0.58255434 0.08400097 0.36980036 0.29913348
000070 7c 67 8f 3f 20 e8 fc 3e 5a fe 2b 3f 85 b3 c6 be
       1.1203456 0.49395847 0.67184985 -0.38808838
000080 0b 1e 8a bd 98 00 3c be e2 71 2c bf 7f b8 b8 be
       -0.067440115 -0.18359601 -0.6736127 -0.3607826
000090 98 5f ca 3d ed 04 26 3f b3 d1 a1 3e 7d fd 1e bf
       0.09881514 0.64851266 0.316053 -0.6210554
0000a0 2b 3d f0 bd db 71 31 3f 6e 20 af be b1 43 d4 3e
       -0.11730417 0.69314355 -0.3420443 0.41457894
0000b0 76 dd 1f bc 88 b5 b2 be fc 1f d0 bb 68 a2 21 bc
       -0.00975739 -0.34904122 -0.006351469 -0.009865381
0000c0 f4 ab 42 3d ca 77 6c bf be 00 18 bf bd 00 a4 3d
       0.04752727 -0.92370284 -0.5937613 0.08007953
0000d0 8c b0 2d 3e 92 d2 53 3f fd d6 76 be 2c 31 02 3f
       0.16961879 0.8274318 -0.24105449 0.5085628
0000e0 8c e0 3c 3f 42 e3 12 3f 9c 6b c9 3d c9 73 56 3f
       0.7378013 0.5737802 0.09834978 0.83770424
0000f0 ff 65 46 be 1c 3e 9b 3e db c7 37 3f da 0e c4 3e
       -0.19374846 0.30320823 0.7178933 0.3829258
000100 78 2f 40 be d4 e5 0c 3f c8 b6 9e 3e 61 0d 1a be
       -0.18768108 0.5503819 0.30998826 -0.15044166
000110 9f d7 42 3f 2a e0 0b bf d6 40 c8 3e 22 4c 26 3f
       0.7611026 -0.5463892 0.39111966 0.6495992
000120 08 35 f4 bc 76 60 11 bf d7 41 7d bf e2 a3 1c 3e
       -0.029810444 -0.5678781 -0.9892859 0.15296891
000130 89 fa 22 bf 65 e0 83 be 10 5e 8a 3e dc 83 35 3d
       -0.63663536 -0.25757137 0.2702489 0.044315204
000140 aa 6d ff 3e e8 2d 32 3e de 59 9c 3e f1 e2 a9 be
       0.49888355 0.17400324 0.30537313 -0.33180955
000150 a7 ce 89 bf 70 77 80 3e 8e 9c 0c 3f 9e 8e a5 3e
       -1.076619 0.25091124 0.54926383 0.3233537
000160 9e 04 f9 bd 78 01 46 bf 21 fa 89 bf 01 7b 2b bf
       -0.12159084 -0.7734599 -1.0779458 -0.66984564
000170 c6 f3 f6 3e 35 83 3f be 96 35 00 bf 15 d6 20 3e
       0.4823286 -0.18702395 -0.50081766 0.15706666

layers.2.bias f4 [8]
000000 72 f4 6e 3e 6c b9 8d be 59 85 39 3f d5 b0 f2 bd
       0.23335436 -0.27680528 0.724691 -0.11850134
000010 e6 20 53 3e da 89 7d bd c6 8f cd 3e d1 60 64 3d
       0.20618019 -0.061899044 0.40148753 0.055756394

layers.4.weight f4 [4, 8]
000000 25 3a 75 be 68 7f e2 be d5 6b 4c 3f df 50 b0 3e
       -0.23947962 -0.44237828 0.7985204 0.344367
000010 99 66 88 bf 12 76 61 bf 90 f5 17 bd cb d6 5b bf
       -1.065631 -0.88070786 -0.03709942 -0.85874623
000020 af b6 ac bf 44 e4 7d 3f bb 2d c8 3e 53 24 0d bf
       -1.3493251 0.9917643 0.3909739 -0.5513355
000030 0a 9c a7 3d 2a d8 54 bf e3 93 51 3e 48 53 d2 3e
       0.08184059 -0.8314234 0.2046657 0.41079164
000040 85 92 d1 be 21 eb 96 bf b0 98 3d 3f 44 12 b9 be
       -0.40932098 -1.1790506 0.7406111 -0.36146748
000050 64 a4 19 bf 54 98 a7 be 77 ed af be 54 09 46 3f
       -0.60016465 -0.32733405 -0.3436086 0.77357984
000060 b7 68 2f 3f 3d 71 af bd d0 ba 79 3e 8f f2 0a bf
       0.6851916 -0.0856652 0.2438767 -0.54276365
000070 a3 a4 85 bf c4 ea 55 3f 25 e7 94 3f 37 29 0e 3f
       -1.0440868 0.8356135 1.163304 0.5553164

layers.4.bias f4 [4]
000000 ff a0 88 3e 65 a0 d2 3e 5c e7 b3 3e 8c dd c5 bd
       0.2668533 0.41137996 0.3513745 -0.09661397
