DQN/8x8_map/final_weights2024-07-06 15:38:48.494434_3000.pth (torch, 6399 bytes, 6 tensors)

layers.0.weight f4 [12, 64]
-0.25308174 -0.0015433549 -0.18503667 -0.13909198 0.10346191 -0.12176587 -0.12727924 -0.05022894
-0.13638587 -0.12627533 0.49183396 -0.12552832 -0.21904877 -0.1713552 -0.114747904 -0.14528498
-0.15888976 -0.1251561 -0.038371164 -0.09799844 -0.23787956 -0.12493564 -0.12922257 -0.13479981
-0.27621764 0.16642375 -0.22496223 -0.23845759 -0.2501643 0.12779713 -0.18433228 -0.12637863
-0.032261178 -0.13867 0.18751141 -0.29072583 -0.21956608 -0.13090424 0.38164353 -0.032539517
-0.2289958 0.0019172848 -0.2378059 0.01815329 -0.12765531 0.18069482 0.09483712 -0.12692165
0.119475774 -0.08838541 0.29593515 0.16228333 0.08222512 -0.13434097 0.26122302 -0.076083824
-0.12933086 0.75666326 0.11885681 0.30470422 0.18596907 -0.13722834 -0.016572896 0.26269385
-0.35444236 0.0066680373 0.18706985 -0.35784864 -0.015821597 -0.3466389 0.19088292 -0.17750768
-0.24878702 -0.351737 -0.038168073 0.46540752 0.36105278 0.2571206 -0.2490534 -0.03242413
0.49930027 0.28929427 0.33718598 0.07315262 -0.03289877 0.32302526 0.091663584 -0.09746183
0.28208053 0.28137276 -0.3521226 -0.16908911 0.23000698 0.004467703 -0.35742772 -0.24499719
-0.31892002 0.48971438 0.48450604 0.17001303 -0.35460973 -0.35820362 0.14171706 0.0348278
-0.084803075 -0.045719437 0.13004076 -0.35266054 0.16688931 0.49588478 0.15306005 0.021488342
0.25064936 -0.26565677 -0.22994547 0.5443273 0.1486161 0.49929702 0.0041178116 -0.3538083
-0.32596585 0.10136698 0.32502288 0.064481914 -0.2321028 -0.06243297 -0.21731934 0.1132004
0.0034108637 -0.21582487 0.038395997 -0.22239731 -0.20877936 -0.22323245 0.084918685 0.10604084
-0.20531367 -0.2221347 -0.20572965 -0.25787878 -0.24332114 0.08023934 -0.20371732 0.37727162
-0.22104879 0.12267228 -0.20649706 0.18265852 0.123809405 -0.08489046 0.059393723 0.21017033
0.18028374 0.24043848 -0.22099619 -0.22332817 -0.13474391 -0.0051412783 -0.26649803 0.25960267
-0.20859016 -0.15438937 -0.21433517 -0.27539742 -0.007537153 0.16409223 0.43194714 0.3477489
-0.21612428 -0.30282116 0.11614067 0.042375088 -0.26286456 0.7054007 0.2588735 0.27084708
-0.22300406 0.25103483 0.13966 0.033566117 -0.20706931 0.6513987 -0.20914774 0.5467339
-0.21874802 0.057900064 0.028828636 0.08114256 0.1304051 0.2792219 -0.21440665 -0.2886048
-0.117637694 0.077416554 -0.080609545 0.0016646719 -0.113205135 0.041940082 0.17527777 -0.0036473023
-0.15651067 -0.2501939 0.18604024 -0.17962652 0.1980765 -0.29423755 -0.004533069 0.27287418
0.17150818 -0.0052927383 -0.29459605 0.29451844 -0.05237241 -0.28610298 0.20610093 -0.12459657
-0.028118454 0.2383251 -0.2122485 -0.21662368 -0.003908366 -0.040984225 0.7464229 -0.25680003
-0.017437685 -0.1361793 -0.15052386 -0.2803554 0.013247135 -0.010860647 -0.2588631 0.2839699
0.014183259 0.0568169 -0.17977308 -0.004062279 0.0005892716 0.11928051 -0.23847933 0.49131036
0.0060231965 0.1472649 0.42247626 0.13155845 -0.23868282 0.18506016 -0.207954 -0.008001259
-0.2139518 -0.06712621 -0.013913929 -0.036630694 -0.04837005 -0.004904137 0.420881 0.17789774
00000000: ee93 81be 664a caba 417a 3dbe 216e 0ebe
00000010: d6e3 d33d 6260 f9bd 7d55 02be dcbc 4dbd
00000020: bda8 0bbe 524e 01be a9d1 fb3e 7f8a 00be
00000030: 524e 60be bd77 2fbe f300 ebbd 96c5 14be
00000040: ffb3 22be ec28 00be 152b 1dbd 68b3 c8bd
00000050: b396 73be 42de ffbd ec52 04be f608 0abe
00000060: 666c 8dbe fd6a 2a3e 805c 66be 3a2e 74be
00000070: 8915 80be 40dd 023e 9ac1 3cbe 6669 01be
00000080: 4c24 04bd 82ff 0dbe fe02 403e 04da 94be
00000090: eed5 60be c30b 06be c866 c33e 2848 05bd
000000a0: e07d 6abe 674d fb3a 6483 73be 35b6 943c
000000b0: 13b8 02be 1008 393e f739 c23d c0f7 01be
000000c0: b7af f43d 6903 b5bd d084 973e 9a2d 263e
000000d0: a565 a83d ae90 09be 06bf 853e d6d1 9bbd
000000e0: 4f6f 04be afb4 413f 336b f33d 3102 9c3e
000000f0: ad6e 3e3e 9685 0cbe e2c3 87bc cf7f 863e
00000100: 7879 b5be 8d7f da3b 3d8f 3f3e f037 b7be
00000110: 4b9c 81bc a77a b1be d076 433e 93c4 35be
00000120: 06c2 7ebe df16 b4be 2056 1cbd e549 ee3e
00000130: e9db b83e 50a5 833e db07 7fbe 2acf 04bd
00000140: 49a4 ff3e 611e 943e a4a3 ac3e 0ad1 953d
00000150: dcc0 06bd 9163 a53e 1eba bb3d 119a c7bd
00000160: dc6c 903e 1710 903e 6a49 b4be b225 2dbe
00000170: f386 6b3e cf65 923b c400 b7be 8be0 7abe
00000180: 7c49 a3be d8bb fa3e 2d11 f83e e517 2e3e
00000190: 688f b5be 7766 b7be 471e 113e 98a7 0e3d
000001a0: 3cad adbd 4e44 3bbd 6829 053e ec8f b4be
000001b0: 08e5 2a3e 9ce4 fd3e c6bb 1c3e 5208 b03c
000001c0: 1d55 803e 2a04 88be d376 6bbe 0959 0b3f
000001d0: d22e 183e dca3 ff3e b5ee 863b 5d26 b5be
000001e0: ffe4 a6be 7e99 cf3d 6669 a63e 180f 843d
000001f0: 5bac 6dbe b7b9 7fbd f688 5ebe 9cd5 e73d
00000200: cc88 5f3b 3201 5dbe 1f45 1d3d 1fbc 63be
00000210: 42ca 55be 0c97 64be d9e9 ad3d f12b d93d
00000220: bf3d 52be 4777 63be cbaa 52be b008 84be
00000230: 2d29 79be 8654 a43d 469b 50be bf29 c13e
00000240: 9d5a 62be 9b3b fb3d f773 53be d60a 3b3e
00000250: c98f fd3d 0ddb adbd d546 733d e436 573e
00000260: 4d9c 383e 8135 763e d34c 62be 24b0 64be
00000270: 4ffa 09be 2b78 a8bb 6e72 88be a4ea 843e
00000280: a998 55be 3f18 1ebe ae7a 5bbe e400 8dbe
00000290: 39fa f6bb cb07 283e 2d28 dd3e 250c b23e
000002a0: af4f 5dbe 600b 9bbe 29db ed3d 8091 2d3d
000002b0: 2f96 86be 2495 343f 118b 843e 78ac 8a3e
000002c0: 2d5b 64be a387 803e 0803 0f3e a07c 093d
000002d0: fa09 54be 11c2 263f d32a 56be c1f6 0b3f
000002e0: 7bff 5fbe 9e28 6d3d 082a ec3c 122e a63d
000002f0: ea88 053e 2cf6 8e3e 6b8d 5bbe 02c4 93be
00000300: 08ec f0bd 928c 9e3d 9e16 a5bd 1f31 da3a
00000310: 18d8 e7bd 5dc9 2b3d 047c 333e 9407 6fbb
00000320: 5544 20be 6a19 80be 5581 3e3e 04f0 37be
00000330: 91d4 4a3e 4ea6 96be 248a 94bb 2ab6 8b3e
00000340: d79f 2f3e b56e adbb 4bd5 96be 1fcb 963e
00000350: 7484 56bd 177c 92be 1f0c 533e 7d2c ffbd
00000360: ac58 e6bc 7f0b 743e ac57 59be 99d2 5dbe
00000370: c011 80bb 13df 27bd 9215 3f3f 4b7b 83be
00000380: 7ad9 8ebc 9672 0bbe ed22 1abe be8a 8fbe
00000390: 830a 593c dbf0 31bc b489 84be 8164 913e
000003a0: e660 683c d6b8 683d 6f16 38be de1c 85bb
000003b0: 5979 1a3a 5749 f43d ed33 74be 088d fb3e
000003c0: 3c5e c53b 9ccc 163e cf4e d83e 42b7 063e
000003d0: 4569 74be 6980 3d3e e5f1 54be b617 03bc
000003e0: 2e16 5bbe 7779 89bd 40f7 63bc 110a 16bd
000003f0: ac1f 46bd e2b2 a0bb b77d d73e d32a 363e

layers.0.bias f4 [12]
0.08085501 0.33864677 0.18823004 -0.02348009 0.11533291 -0.0066653755 -0.05645473 -0.107531644
-0.06419927 -0.000310491 -0.03639254 -0.0056845774
00000000: 5097 a53d 1c63 ad3e 60bf 403e 5159 c0bc
00000010: a933 ec3d 3969 dabb 133d 67bd 8d39 dcbd
00000020: e87a 83bd 66c9 a2b9 5810 15bd b145 babb

layers.2.weight f4 [8, 12]
-0.6813092 0.24415146 -0.9024421 -1.1789657 0.6107996 0.054196805 0.08876935 -0.13865459
-0.61658394 0.20121321 -0.13463254 0.4177457 -0.6961316 0.61687887 0.91304916 -0.38821808
0.1881427 -0.3138212 0.13073944 -0.09905205 0.17611623 0.8512673 0.584195 0.8659549
-0.6274339 0.06292305 0.38561246 0.2511078 1.0872449 0.5652274 0.65537024 -0.41799876
-0.05414467 -0.18829978 -0.5962011 -0.3130108 -0.06734303 0.6349285 0.17876488 -0.5874546
-0.092529684 0.7291673 -0.2656147 0.4207009 -0.0670694 -0.38680974 -0.08350333 -0.16832931
-0.030103907 -0.96062726 -0.587737 0.0031946755 0.1476531 0.7406486 -0.19374877 0.47633666
0.6983185 0.5145446 0.005663301 0.8508292 -0.24694979 0.33599496 0.72421294 0.37156698
-0.16301171 0.56227374 0.30415905 -0.22133246 0.7346276 -0.5271301 0.3198914 0.58269054
-0.096760236 -0.5310136 -1.024825 0.16183057 -0.6493615 -0.34285116 0.2678693 0.024423068
0.5692059 0.12748104 0.3722934 -0.5425273 -1.0874232 0.19948651 0.5280329 0.3396798
-0.13637501 -0.7531991 -1.095265 -0.66011226 0.43936464 -0.15209073 -0.49679166 0.12297771
00000000: 486a 2ebf d702 7a3e 7206 67bf 59e8 96bf
00000010: 5d5d 1c3f 78fd 5d3d b4cc b53d 78fb 0dbe
00000020: 72d8 1dbf d60a 4e3e 1ddd 09be c4e2 d53e
00000030: ae35 32bf c6eb 1d3f 97bd 693f 85c4 c6be
00000040: 7ba8 403e 2cad a0be 8fe0 053e cddb cabd
00000050: d057 343e a7ec 593f ce8d 153f 38af 5d3f
00000060: 829f 20bf cddd 803d ff6e c53e 3491 803e
00000070: d72a 8b3f beb2 103f 58c6 273f ef03 d6be
00000080: cdc6 5dbd a8d1 40be a3a0 18bf f442 a0be
00000090: 24eb 89bd ad8a 223f 240e 373e 6d63 16bf
000000a0: 3480 bdbd b5aa 3a3f a6fe 87be 1c66 d73e
000000b0: ae5b 89bd ed0b c6be cb03 abbd 855e 2cbe
000000c0: 789c f6bc abeb 75bf ef75 16bf c35d 513b
000000d0: 6032 173e 269b 3d3f 1466 46be 66e2 f33e
000000e0: 00c5 323f 32b9 033f 3693 b93b f1cf 593f
000000f0: 68e0 7cbe 8807 ac3e 0566 393f 073e be3e
00000100: 8bec 26be 2cf1 0f3f bcba 9b3e faa4 62be
00000110: 8e10 3c3f 00f2 06bf cec8 a33e 352b 153f
00000120: 3b2a c6bd 82f0 07bf 772d 83bf eab6 253e
00000130: 8e3c 26bf 308a afbe 2a26 893e e312 c83c
00000140: 7ab7 113f 648a 023e 3e9d be3e 12e3 0abf
00000150: af30 8bbf 3146 4c3e 2a2d 073f 83ea ad3e
00000160: e4a5 0bbe a8d1 40bf a531 8cbf 1efd 28bf
00000170: 67f4 e03e acbd 1bbe 7a5b febe bddb fb3d

layers.2.bias f4 [8]
0.2395974 -0.32147884 0.732888 -0.0768118 0.28623036 -0.028398884 0.42574164 0.058600854
00000000: 0559 753e e098 a4be 8c9e 3b3f 814f 9dbd
00000010: c98c 923e c7a4 e8bc cffa d93e 7307 703d

layers.4.weight f4 [4, 8]
-0.23489758 -0.4152325 0.8485253 0.2689405 -1.0540336 -0.86744356 0.079648785 -0.7470957
-1.3020558 0.9892817 0.39551163 -0.4586104 0.21215141 -0.8414725 0.14374031 0.4464164
-0.4202633 -1.1602758 0.6945913 -0.39766324 -0.6176758 -0.27844912 -0.38891676 0.7053561
0.73618793 -0.100322776 0.25910175 -0.46594796 -1.0238745 0.7918382 1.2785733 0.57540214
00000000: fe88 70be 5b99 d4be f438 593f 92b2 893e
00000010: 93ea 86bf c810 5ebf e71e a33d aa41 3fbf
00000020: c4a9 a6bf 9141 7d3f 8080 ca3e fbce eabe
00000030: 383e 593e be6a 57bf a930 133e b190 e43e
00000040: c02c d7be eb83 94bf bcd0 313f 849a cbbe
00000050: 0020 1ebf e290 8ebe 1920 c7be 3892 343f
00000060: d076 3c3f 0776 cdbd fca8 843e bb90 eebe
00000070: 520e 83bf e9b5 4a3f 4aa8 a33f 8e4d 133f

layers.4.bias f4 [4]
0.23614672 0.39308682 0.4559508 -0.16212294
00000000: 72d0 713e ad42 c93e 6272 e93e 8e03 26be
