DQN/8x8_map/final_weights2024-07-06 15:38:48.494434_500.pth (torch, 6391 bytes, 6 tensors)

layers.0.weight f4 [12, 64]
000000 ee 93 81 be 04 9a 65 3d 41 7a 3d be e4 6e 36 3c
       -0.25308174 0.056055084 -0.18503667 0.011134837
000010 84 64 7b 3e 85 05 c1 bd a8 a5 c5 bd 65 d1 1f 3e
       0.24550062 -0.09424881 -0.09650737 0.15607221
000020 4a 8b e6 bd 87 67 d7 bc 63 e5 d9 3e 7f 8a 00 be
       -0.11257036 -0.026294483 0.4255782 -0.12552832
000030 52 4e 60 be bd 77 2f be 2d da ad bd 96 c5 14 be
       -0.21904877 -0.1713552 -0.08488879 -0.14528498
000040 ff b3 22 be 89 c2 80 3d 21 20 55 3d 68 b3 c8 bd
       -0.15888976 0.06287105 0.052032594 -0.09799844
000050 b3 96 73 be 61 70 c5 bd ec 52 04 be 6d 0f cc bd
       -0.23787956 -0.09640575 -0.12922257 -0.0996388
000060 66 6c 8d be 53 65 eb 3d 80 5c 66 be 3a 2e 74 be
       -0.27621764 0.114939354 -0.22496223 -0.23845759
000070 89 15 80 be 40 dd 02 3e 9a c1 3c be 66 69 01 be
       -0.2501643 0.12779713 -0.18433228 -0.12637863
000080 6f 73 88 3e 91 5b 54 3d 57 84 27 3e 04 da 94 be
       0.2665057 0.051845137 0.16359077 -0.29072583
000090 ee d5 60 be c2 b9 ec bd 8f bb da 3e 85 4c 00 3d
       -0.21956608 -0.11558868 0.4272122 0.031322975
0000a0 e0 7d 6a be 67 4d fb 3a 64 83 73 be f5 63 89 bd
       -0.2289958 0.0019172848 -0.2378059 -0.067085184
0000b0 af 6d ac bd 35 f6 ed 3d f7 39 c2 3d 83 af 5a bd
       -0.08419358 0.11619226 0.09483712 -0.053390037
0000c0 2f dc 53 3d 69 03 b5 bd 74 31 65 3e 7b be c3 3d
       0.051723655 -0.08838541 0.22382146 0.09557816
0000d0 a5 65 a8 3d cd 6a f4 bd 06 bf 85 3e 5a 0f 35 bd
       0.08222512 -0.11934433 0.26122302 -0.044204094
0000e0 ea 20 f4 bd cf 3b c9 3e e0 75 b1 3d 31 02 9c 3e
       -0.1192034 0.39303443 0.08665061 0.30470422
0000f0 48 c6 b9 3d 9d c3 d5 bd c5 f0 be 3d cf 7f 86 3e
       0.09071022 -0.10437701 0.09323267 0.26269385
000100 f4 80 a3 be 83 7a c0 bc 4d 20 1f 3e 7b 06 91 be
       -0.3193432 -0.023495918 0.15539666 -0.28325257
000110 40 33 11 bd b0 1f a2 be 80 f1 db 3d 7d e4 a7 bd
       -0.035449266 -0.316648 0.10739422 -0.081978776
000120 2f 52 76 be 92 a3 a8 be 32 c7 68 3b c7 53 c7 3e
       -0.24054788 -0.32937294 0.003551912 0.38931105
000130 57 e6 28 3e 87 1f 4d 3e d8 d2 a1 be 83 3b fa bd
       0.16494118 0.20031558 -0.31606174 -0.12218382
000140 84 3a 9b 3e 7b 26 66 3e c2 54 2d 3d 0a d1 95 3d
       0.3031808 0.22475617 0.04231716 0.07315262
000150 05 99 b4 bd 90 b3 85 3e 88 05 99 3c 65 e7 eb bc
       -0.08818249 0.26113558 0.018679395 -0.028796861
000160 87 41 2f 3e fb 42 6f 3e 6c eb 95 be f1 85 30 be
       0.1711484 0.23365395 -0.29281175 -0.17238595
000170 6a 91 08 3d cf 65 92 3b 11 4e 9a be ef 64 03 be
       0.033341803 0.004467703 -0.30137685 -0.12831472
000180 7c 49 a3 be d8 18 f1 3e 2b 1f aa 3e e5 17 2e 3e
       -0.31892002 0.47089267 0.33226904 0.17001303
000190 51 bb a5 be 96 11 a4 be 6a 98 6b 3d dc f9 b2 bd
       -0.32369474 -0.32044667 0.0575184 -0.08739063
0001a0 3e b5 4a 3d 4e 44 3b bd 68 29 05 3e b6 c6 a1 be
       0.049489252 -0.045719437 0.13004076 -0.31596917
0001b0 76 8b 27 3e 0d ee 67 3e c6 bb 1c 3e 92 55 3c be
       0.16361794 0.22649403 0.15306005 -0.18392017
0001c0 4a 38 42 3d 2a 04 88 be d0 fb 96 bd 8b 27 c5 3e
       0.047416963 -0.26565677 -0.07372248 0.3850673
0001d0 d2 2e 18 3e 99 cb 38 bd b5 ee 86 3b 94 8f 90 bd
       0.1486161 -0.04511604 0.0041178116 -0.07058635
0001e0 c4 3e db bd 2d ed f0 3d 14 4d 19 3e 18 0f 84 3d
       -0.10705331 0.11763988 0.14970809 0.064481914
0001f0 92 3a fd bd 59 34 04 be 01 f4 09 3e 9c d5 e7 3d
       -0.12364687 -0.12910594 0.13471986 0.1132004
000200 cf 70 d3 3d 43 1b 17 be 74 bf 1c 3e 3a ab b9 bd
       0.10324251 -0.14756493 0.15307409 -0.09065862
000210 6d 03 40 be e6 a4 12 be f4 01 11 3e db c5 56 3d
       -0.18751307 -0.14320716 0.14160901 0.052434783
000220 74 55 9a bd 2d 7b 02 be d9 4e b2 bd b0 08 84 be
       -0.0753583 -0.127423 -0.08706445 -0.25787878
000230 2d 29 79 be 36 69 2f 3e 24 40 bb bd 70 4f ad 3e
       -0.24332114 0.17129979 -0.09143093 0.33849669
000240 9d 5a 62 be ad eb bc 3d 48 11 42 be d6 0a 3b 3e
       -0.22104879 0.09224639 -0.18951905 0.18265852
000250 5c 51 b4 bc 27 ab 00 3e 7d fa c0 3c f4 01 fe 3d
       -0.022011451 0.1256529 0.023556942 0.12402716
000260 92 5e 74 3e 41 d5 c2 3d e2 58 e0 bd 63 5e a9 bd
       0.238642 0.09513331 -0.10954453 -0.08269956
000270 95 8a c9 bd 2b 78 a8 bb 6e 72 88 be ff 49 c7 3d
       -0.098408855 -0.0051412783 -0.26649803 0.097309105
000280 21 e1 24 be 08 86 d3 bd 13 38 48 be e4 00 8d be
       -0.16101505 -0.10328299 -0.1955264 -0.27539742
000290 ac 07 7a 3e 19 af 88 3e 66 7c e7 3e 9a 04 81 3e
       0.24416989 0.2669609 0.45212096 0.25198823
0002a0 4a 84 22 be 60 0b 9b be 29 db ed 3d 54 ca 75 3e
       -0.15870777 -0.30282116 0.11614067 0.24002963
0002b0 2f 96 86 be cf 51 07 3f 11 8b 84 3e 6a d1 c8 3d
       -0.26286456 0.52859205 0.2588735 0.098055676
0002c0 4a e4 3c be a3 87 80 3e 76 3b 2b 3e 55 be 0c 3e
       -0.1844646 0.25103483 0.16721901 0.13744481
0002d0 fa 09 54 be 92 0b 95 3e d3 2a 56 be 54 2a a8 3e
       -0.20706931 0.2911039 -0.20914774 0.32844794
0002e0 36 d8 04 be 87 b3 74 3e 90 1f 04 3e 12 2e a6 3d
       -0.12973103 0.23896609 0.12902665 0.08114256
0002f0 16 54 40 bd 30 98 0e 3e 26 ac 02 be 02 c4 93 be
       -0.04695519 0.13925242 -0.12760982 -0.2886048
000300 08 ec f0 bd 05 36 41 3e 9e 16 a5 bd 48 e2 23 3e
       -0.117637694 0.18868263 -0.080609545 0.16004288
000310 18 d8 e7 bd 32 d3 d6 3d 89 6d e2 3d 8d 65 79 3c
       -0.113205135 0.10489501 0.110560484 0.0152219655
000320 55 44 20 be 6a 19 80 be d3 8b 23 3e 04 f0 37 be
       -0.15651067 -0.2501939 0.15971307 -0.17962652
000330 0b d3 78 3e 4e a6 96 be 4c cd 6d 3c 55 f2 92 3e
       0.24299257 -0.29423755 0.014514279 0.2870051
000340 f5 8c 5f 3e 33 3f dd 3d 4b d5 96 be 1f cb 96 3e
       0.21831115 0.1080307 -0.29459605 0.29451844
000350 74 84 56 bd 17 7c 92 be e5 64 43 3e 7d 2c ff bd
       -0.05237241 -0.28610298 0.19081457 -0.12459657
000360 ac 58 e6 bc 02 19 33 3e ac 57 59 be 99 d2 5d be
       -0.028118454 0.17490008 -0.2122485 -0.21662368
000370 6c e8 73 3c 13 df 27 bd 92 fc 81 3e 4b 7b 83 be
       0.014886957 -0.040984225 0.25388008 -0.25680003
000380 7a d9 8e bc 96 72 0b be ed 22 1a be be 8a 8f be
       -0.017437685 -0.1361793 -0.15052386 -0.2803554
000390 36 b1 d0 3c 9f 44 06 3c b4 89 84 be ce 8e 4d 3e
       0.025475126 0.0081950715 -0.2588631 0.20074007
0003a0 e6 60 68 3c d6 b8 68 3d 6f 16 38 be 02 1b 75 3c
       0.014183259 0.0568169 -0.17977308 0.014960052
0003b0 10 99 a2 3d 4d 9a 29 3e ed 33 74 be fc 90 bd 3e
       0.079393506 0.16562767 -0.23847933 0.37024677
0003c0 3c 5e c5 3b 9c cc 16 3e dc 95 5d 3e 7c 0c 46 3e
       0.0060231965 0.1472649 0.21639198 0.193407
0003d0 45 69 74 be 64 20 4f 3e e5 f1 54 be 25 09 bc 3c
       -0.23868282 0.202272 -0.207954 0.02295358
0003e0 2e 16 5b be 77 79 89 bd 40 f7 63 bc 11 0a 16 bd
       -0.2139518 -0.06712621 -0.013913929 -0.036630694
0003f0 ac 1f 46 bd 46 d4 c5 3c 38 1c 9c 3e d3 2a 36 3e
       -0.04837005 0.024149071 0.3049028 0.17789774

layers.0.bias f4 [12]
000000 ca 49 c5 bd 9d fa 85 3e d3 c5 96 3d 84 e4 a9 bd
       -0.09633215 0.26167765 0.07361951 -0.08295539
000010 e0 db cf bd b6 df 4d bd e7 87 de bd b5 5d 66 be
       -0.1014936 -0.050262176 -0.10865765 -0.22496684
000020 fb 26 d0 bd 85 8b a8 bc dd 44 c0 bd a3 4f c1 bd
       -0.10163685 -0.02057434 -0.09388135 -0.094390176

layers.2.weight f4 [8, 12]
000000 44 b3 06 bf c3 20 61 3e 4e 70 2f bf 40 d3 47 bf
       -0.5261729 0.21985154 -0.6853074 -0.78056717
000010 75 87 d6 3e f5 91 a2 3e bf a1 ce 3d 68 4b 2f be
       0.4190022 0.3175198 0.10089444 -0.17118609
000020 87 5c d7 be c3 89 9f 3e 6c af 4f bd 75 f9 9d 3e
       -0.4206278 0.3115979 -0.050704405 0.30854383
000030 47 10 4e bf 8c 46 af 3e 8f ce 66 3f d0 cf d4 be
       -0.8049359 0.3423351 0.90158933 -0.41564798
000040 eb 85 16 3e fb 71 91 be d0 72 84 3d 64 d9 1b be
       0.14699523 -0.28407273 0.06467211 -0.15219647
000050 3b 00 b8 3e 53 14 33 3f 09 0b fc 3e 05 92 43 3f
       0.35937676 0.6995289 0.4922717 0.76394683
000060 a5 c0 78 be e0 b4 d1 3d 9f f0 d4 3e 24 0b 12 bc
       -0.24292238 0.10239577 0.4158983 -0.008913789
000070 1a f5 01 3f d8 7a 8d 3e 26 78 00 3f 02 b9 e6 be
       0.5076462 0.27632785 0.5018333 -0.45063025
000080 27 80 ba bd 61 65 06 3e 21 70 0e bf f6 eb b8 be
       -0.09106474 0.1312461 -0.55639845 -0.36117524
000090 e4 24 9d bd 5f c0 0f 3f 19 06 f6 3e 9c 55 24 bf
       -0.07673052 0.5615291 0.48051527 -0.6419313
0000a0 b5 03 4f 3e 71 27 07 3f 01 12 a8 be 3e ce f3 3e
       0.20216258 0.5279456 -0.32826236 0.47618288
0000b0 c7 6f 0d 3e 2b d8 b8 be 57 ae 28 bd 8c 4e d8 b9
       0.13812171 -0.36102423 -0.04118189 -0.00041257252
0000c0 28 fd 81 bc 42 96 46 bf 9d 73 cc be db 94 12 3e
       -0.015867785 -0.77573025 -0.39931956 0.14314596
0000d0 35 c7 e7 bc d1 69 2f 3f 0c 86 b0 be cb 0e c6 3e
       -0.028293232 0.6852084 -0.3447727 0.3868316
0000e0 75 c0 19 3f 1f 3f ef 3e 4c c0 37 3e 93 f3 01 3f
       0.6005929 0.46727845 0.17944449 0.5076229
0000f0 d8 f0 ae bd 0c 18 b3 3e 7c 19 1a 3f 21 d0 1b 3f
       -0.08542031 0.34979284 0.60195136 0.60864455
000100 61 6a 17 be ca 22 50 3e bf 03 c9 3d 73 5b e5 bd
       -0.14786674 0.20325771 0.09815168 -0.11199083
000110 37 1a 06 3f 0b fd 03 bf ee 7e c7 3e af 2a 4d 3f
       0.5238375 -0.5155799 0.38964027 0.80143255
000120 3e 6c c5 3c 34 3e 19 bf 34 7c 86 bf ec 7f e7 3d
       0.024099465 -0.5986054 -1.0506654 0.11303696
000130 a5 25 50 bf f5 bd e6 be a3 ea 18 3e b0 11 5f 3d
       -0.8130744 -0.450668 0.14933257 0.054460227
000140 2b bb fc 3e 22 ff bb 3e 11 ca c5 3e 1f 75 c7 be
       0.49361548 0.36718088 0.38630727 -0.38956544
000150 bc 4a 3e bf 81 87 69 3e 89 45 ec 3e d1 4e 0b 3e
       -0.74332786 0.22805597 0.461468 0.13604285
000160 f8 3f 25 be 1d b3 2c bf be 27 65 bf 42 2c fe be
       -0.16137683 -0.67460805 -0.89513767 -0.4964314
000170 94 9e 31 3f f3 af be be 7a c0 0b bf e8 a6 a2 3e
       0.69382596 -0.37243614 -0.5459057 0.31767964

layers.2.bias f4 [8]
000000 af 26 9b 3d 91 1f c9 bd 80 97 e5 3e 8d d8 89 bd
       0.07575738 -0.09820474 0.44842148 -0.06730757
000010 65 b3 d1 3d 48 6c b3 bd da dd 72 3e e0 e8 1f 3d
       0.10239295 -0.087608874 0.23717442 0.039040446

layers.4.weight f4 [4, 8]
000000 aa 36 9f bc 91 9d 55 be 7e f0 04 3f fb 16 0b 3f
       -0.019435246 -0.20860888 0.5192946 0.5433194
000010 db fd 4d bf 44 46 2d bf 4e 11 4b 3e 32 ad 3b bf
       -0.8046548 -0.6768534 0.1983082 -0.7331115
000020 b8 97 45 bf 15 03 5f 3f a3 06 22 3d 2e 16 11 bf
       -0.7718463 0.8711408 0.03955711 -0.5667447
000030 d1 99 6c be a5 73 33 bf 66 fc e5 3e d2 77 08 3f
       -0.23105551 -0.70098335 0.44919127 0.5330783
000040 90 2f 0b bf 3a 75 7d bf e1 78 2e 3f ef 7e 7e bd
       -0.5436945 -0.99007 0.68153197 -0.062132772
000050 18 3f 6e be f9 31 b3 be 57 b4 d3 be a8 ef 1f 3f
       -0.23266256 -0.34999064 -0.41348526 0.6247506
000060 28 f3 cb 3e 85 d0 9d bd 62 ce 52 3e ad 1d 0b bf
       0.3983395 -0.077057876 0.20586541 -0.54342157
000070 a1 0c 34 bf 48 0c 61 3f 22 cc 63 3f 61 41 2b 3f
       -0.7033177 0.87909365 0.88983357 0.66896635

layers.4.bias f4 [4]
000000 5a 2f d0 3d ea 91 67 3e 5f a4 23 3e 0d d2 31 bc
       0.101652816 0.22614256 0.15980671 -0.010853303
