DQN/8x8_map/final_weights2024-07-06 15:38:48.494434_2000.pth (torch, 6399 bytes, 6 tensors)

layers.0.weight f4 [12, 64]
00000000: ee93 81be 5029 b3bb 417a 3dbe 216e 0ebe
00000010: 1267 ec3d 6260 f9bd 7d55 02be 770a 06bd
00000020: bda8 0bbe 524e 01be ce9d f63e 7f8a 00be
00000030: 524e 60be bd77 2fbe f300 ebbd 96c5 14be
00000040: ffb3 22be ec28 00be f3ea 443b 68b3 c8bd
00000050: b396 73be 42de ffbd ec52 04be f608 0abe
00000060: 666c 8dbe acdd 0c3e 805c 66be 3a2e 74be
00000070: 8915 80be 40dd 023e 9ac1 3cbe 6669 01be
00000080: 4c24 04bd 82ff 0dbe 5f4c 403e 04da 94be
00000090: eed5 60be c30b 06be cd12 ba3e fa26 f1bc
000000a0: e07d 6abe 674d fb3a 6483 73be 5da7 cc3c
000000b0: 13b8 02be b957 263e f739 c23d c0f7 01be
000000c0: b7af f43d 6903 b5bd d084 973e 9a2d 263e
000000d0: a565 a83d ae90 09be 06bf 853e 7b6b b2bd
000000e0: 4f6f 04be afb4 413f 336b f33d 3102 9c3e
000000f0: 9b75 893e 9685 0cbe b9b5 0fbd cf7f 863e
00000100: dd31 acbe 6ecd ee3c 8079 393e 0ecc abbe
00000110: ce82 c83a 83da abbe 676a 3f3e 71d9 40be
00000120: 808e 8cbe 7263 b2be 1a9c 4cbd 948f e43e
00000130: fcc5 b93e 5f57 713e ecef 92be f27c c1bc
00000140: 3869 033f ec31 8c3e 38d1 863e 0ad1 953d
00000150: d264 7bbc 35f2 9e3e 12a7 c63d f0ba 4fbd
00000160: 32df 903e 6326 983e 54e3 abbe d64b 28be
00000170: b884 663e cf65 923b fbc2 adbe 5166 82be
00000180: 7c49 a3be 1ad3 023f d338 fe3e e517 2e3e
00000190: 12a0 b1be c5c8 adbe ffd3 0e3e cc6c 363d
000001a0: 3cad adbd 4e44 3bbd 6829 053e fd82 abbe
000001b0: 4503 113e 87a4 033f c6bb 1c3e 8ae5 9c3c
000001c0: 1d55 803e 2a04 88be d376 6bbe 0959 0b3f
000001d0: d22e 183e 52b4 f53e b5ee 863b 06be b0be
000001e0: ffe4 a6be 7e99 cf3d 6669 a63e 180f 843d
000001f0: 43b2 35be 6675 99bd 85e9 53be 9cd5 e73d
00000200: c1e6 903b 3201 5dbe b3ae f13c 1fbc 63be
00000210: 42ca 55be 0c97 64be 3201 a03d e10c a63d
00000220: bf3d 52be 4777 63be cbaa 52be b008 84be
00000230: 2d29 79be 2ac3 8c3d 3a18 2dbe 8275 c53e
00000240: 9d5a 62be 2cd5 ed3d f773 53be d60a 3b3e
00000250: be57 133e 1f18 b3bd aede 7d3d 62ef 433e
00000260: 4c5b 353e 94a9 7f3e d34c 62be 24b0 64be
00000270: 73ab 09be 2b78 a8bb 6e72 88be be8c 813e
00000280: a998 55be 48cf 0bbe ae7a 5bbe e400 8dbe
00000290: 9eff 33bc 74aa 213e 279d e23e 820d b43e
000002a0: af4f 5dbe 600b 9bbe 29db ed3d b54e 3f3d
000002b0: 2f96 86be 053a 353f 118b 843e 9467 853e
000002c0: 2d5b 64be a387 803e 0803 0f3e a07c 093d
000002d0: fa09 54be 8ad8 263f d32a 56be 94b7 053f
000002e0: 7bff 5fbe 9e28 6d3d 082a ec3c 122e a63d
000002f0: 91fd b13d 1c4e 853e 6b8d 5bbe 02c4 93be
00000300: 08ec f0bd 93cc 973d 9e16 a5bd b0af 403d
00000310: 18d8 e7bd b29f d23c 95fc 353e 9407 6fbb
00000320: 5544 20be 6a19 80be 9c06 553e 04f0 37be
00000330: 453f 423e 4ea6 96be 248a 94bb 6619 8b3e
00000340: 301a 2c3e b56e adbb 4bd5 96be 1fcb 963e
00000350: 7484 56bd 177c 92be 28ce 553e 7d2c ffbd
00000360: ac58 e6bc e5c9 6e3e ac57 59be 99d2 5dbe
00000370: c011 80bb 13df 27bd db50 443f 4b7b 83be
00000380: 7ad9 8ebc 9672 0bbe ed22 1abe be8a 8fbe
00000390: a030 113c 9f44 063c b489 84be 5359 903e
000003a0: e660 683c d6b8 683d 6f16 38be de1c 85bb
000003b0: 5979 1a3a 4636 ef3d ed33 74be 4515 003f
000003c0: 3c5e c53b 9ccc 163e cf4e d83e 42b7 063e
000003d0: 4569 74be e074 4a3e e5f1 54be 2d63 323c
000003e0: 2e16 5bbe 7779 89bd 40f7 63bc 110a 16bd
000003f0: ac1f 46bd e338 183c d3d1 d43e d32a 363e
-0.25308174 -0.0054675713 -0.18503667 -0.13909198 0.115430966 -0.12176587 -0.12727924 -0.032724824
-0.13638587 -0.12627533 0.4816727 -0.12552832 -0.21904877 -0.1713552 -0.114747904 -0.14528498
-0.15888976 -0.1251561 0.0030047267 -0.09799844 -0.23787956 -0.12493564 -0.12922257 -0.13479981
-0.27621764 0.13756436 -0.22496223 -0.23845759 -0.2501643 0.12779713 -0.18433228 -0.12637863
-0.032261178 -0.13867 0.18779133 -0.29072583 -0.21956608 -0.13090424 0.3634247 -0.02943753
-0.2289958 0.0019172848 -0.2378059 0.024982149 -0.12765531 0.16244401 0.09483712 -0.12692165
0.119475774 -0.08838541 0.29593515 0.16228333 0.08222512 -0.13434097 0.26122302 -0.087119065
-0.12933086 0.75666326 0.11885681 0.30470422 0.26847538 -0.13722834 -0.035085414 0.26269385
-0.33631793 0.02915069 0.18112755 -0.3355412 0.0015297772 -0.3356515 0.18692933 -0.18832947
-0.2745247 -0.34841496 -0.049953558 0.4464079 0.36283863 0.23568486 -0.2869867 -0.023619149
0.51332426 0.27381837 0.26331496 0.07315262 -0.015343862 0.31044164 0.09699835 -0.050715387
0.28295285 0.29716787 -0.33571875 -0.16435179 0.22511566 0.004467703 -0.3393782 -0.25468686
-0.31892002 0.51103365 0.49652728 0.17001303 -0.34692436 -0.33942237 0.13948058 0.04453735
-0.084803075 -0.045719437 0.13004076 -0.33498374 0.14161403 0.51422924 0.15306005 0.019152422
0.25064936 -0.26565677 -0.22994547 0.5443273 0.1486161 0.47989136 0.0041178116 -0.34519976
-0.32596585 0.10136698 0.32502288 0.064481914 -0.17743783 -0.07493095 -0.2069455 0.1132004
0.0044220393 -0.21582487 0.029502248 -0.22239731 -0.20877936 -0.22323245 0.07812728 0.08107925
-0.20531367 -0.2221347 -0.20572965 -0.25787878 -0.24332114 0.06873162 -0.16903773 0.38566214
-0.22104879 0.11612925 -0.20649706 0.18265852 0.1438894 -0.08744835 0.061979942 0.19134286
0.17710608 0.24967033 -0.22099619 -0.22332817 -0.13444309 -0.0051412783 -0.26649803 0.2530269
-0.20859016 -0.1365329 -0.21433517 -0.27539742 -0.010986237 0.15787679 0.44260523 0.35166556
-0.21612428 -0.30282116 0.11614067 0.04670592 -0.26286456 0.70791656 0.2588735 0.26055586
-0.22300406 0.25103483 0.13966 0.033566117 -0.20706931 0.6517416 -0.20914774 0.52233243
-0.21874802 0.057900064 0.028828636 0.08114256 0.08690942 0.26036155 -0.21440665 -0.2886048
-0.117637694 0.07412066 -0.080609545 0.04704255 -0.113205135 0.025710914 0.17772134 -0.0036473023
-0.15651067 -0.2501939 0.20803303 -0.17962652 0.18969448 -0.29423755 -0.004533069 0.27167815
0.16806865 -0.0052927383 -0.29459605 0.29451844 -0.05237241 -0.28610298 0.20879424 -0.12459657
-0.028118454 0.23319204 -0.2122485 -0.21662368 -0.003908366 -0.040984225 0.76685876 -0.25680003
-0.017437685 -0.1361793 -0.15052386 -0.2803554 0.008861691 0.0081950715 -0.2588631 0.2819315
0.014183259 0.0568169 -0.17977308 -0.004062279 0.0005892716 0.11680274 -0.23847933 0.50032455
0.0060231965 0.1472649 0.42247626 0.13155845 -0.23868282 0.19771147 -0.207954 0.010887903
-0.2139518 -0.06712621 -0.013913929 -0.036630694 -0.04837005 0.009290907 0.41566333 0.17789774

layers.0.bias f4 [12]
00000000: 903a b03d ca9f a93e c099 423e 751d 77bc
00000010: 61fc e63d d395 943b 0729 3abd 011d c7bd
00000020: 6f42 65bd 729c 22bc ff99 33bd 2529 8d3b
0.0860492 0.33129722 0.19003963 -0.015082707 0.11278606 0.004534462 -0.045449283 -0.09722329
-0.05597156 -0.009924995 -0.043848034 0.0043078833

layers.2.weight f4 [8, 12]
00000000: 905e 3dbf cd57 903e 8eb0 6abf 9cfc 97bf
00000010: 33a2 1c3f 53c1 d63c 3df8 f63d 1dd5 2abe
00000020: a019 20bf 98e7 433e 747e 1dbe e788 cb3e
00000030: 6be8 37bf 11fc 1c3f f22a 6a3f d06b d5be
00000040: ce4c 2c3e 21b8 aabe 71ff e73d 1be9 cdbd
00000050: fb2f 303e 5a01 693f 263e 173f f46b 623f
00000060: ec8e 20bf 25fc 7d3d 7246 bd3e 2584 913e
00000070: 3444 8d3f 1535 0d3f 983d 303f 1cce d8be
00000080: 8367 92bd dd45 14be abe1 1fbf 9b98 aabe
00000090: 6126 e3bc fe5c 1e3f 5b70 663e 393b 17bf
000000a0: 3a9d b1bd 42d9 423f 146d 71be e0fd dd3e
000000b0: 38ee 02bd b879 b8be aba8 41bd 3a5a f1bd
000000c0: 51d0 873b fcb9 6fbf eeb1 16bf b8cd ef3c
000000d0: fe64 1e3e 8948 4a3f 9b77 54be 5b5e 023f
000000e0: 1237 3c3f b7b1 063f 927d ac3d b223 653f
000000f0: 9ebc 5abe e98d a93e e62f 393f dddf c63e
00000100: 3eb8 2dbe 85ba 0e3f e9d3 a13e 3cfb 47be
00000110: af11 3f3f 222b 06bf 91f9 ae3e 3940 133f
00000120: 4524 e1bd 958b 0cbf 1309 86bf 5d99 373e
00000130: 8af3 22bf f5f1 92be 83d7 893e b448 54bc
00000140: a684 0e3f 50a3 853d 65d3 c33e 2856 04bf
00000150: a645 85bf 1423 473e c031 0a3f e3e4 a63e
00000160: 370c d9bd e74e 3bbf 6166 8cbf 1b6a 27bf
00000170: a9fd dc3e a397 24be c731 01bf 5e30 de3d
-0.73972416 0.28191987 -0.9167565 -1.1873965 0.61184996 0.026215231 0.120590664 -0.16682859
-0.625391 0.19131315 -0.1538027 0.39752886 -0.71839017 0.6132212 0.9147178 -0.41683817
0.16826174 -0.33343604 0.113280185 -0.10054227 0.17205803 0.9101769 0.59079206 0.88445973
-0.6271808 0.062008042 0.36967808 0.2842113 1.1036439 0.5515912 0.68843985 -0.4234475
-0.071486495 -0.14479776 -0.62453717 -0.33319554 -0.027728261 0.61860645 0.22503798 -0.5907474
-0.08672567 0.7611276 -0.23576766 0.43357754 -0.031965464 -0.36030364 -0.047279995 -0.117847875
0.0041447063 -0.93643165 -0.5886525 0.029272899 0.15468213 0.7901693 -0.20748751 0.50925225
0.7352153 0.5261492 0.08422388 0.8950759 -0.21361014 0.3311608 0.7233871 0.3884267
-0.16964814 0.55753356 0.31606987 -0.19529432 0.7463636 -0.52409565 0.3417478 0.5751987
-0.10993246 -0.54900485 -1.0471519 0.17929597 -0.6365286 -0.28700224 0.26922235 -0.012956787
0.55671155 0.0652529 0.3824722 -0.51693964 -1.041188 0.19446975 0.5398216 0.32596502
-0.10598033 -0.7316727 -1.0968744 -0.6539628 0.43162277 -0.1607347 -0.5046658 0.10849069

layers.2.bias f4 [8]
00000000: 5b6a 7e3e 84c2 94be 0a71 383f c446 f3bd
00000010: 2d23 6f3e 8c01 91bd 0973 db3e 7b96 723d
0.24845259 -0.29054654 0.72047484 -0.11878732 0.23353262 -0.07080373 0.42861202 0.05922554

layers.4.weight f4 [4, 8]
00000000: 04a1 67be f9c2 c6be 0a5f 563f 6b32 953e
00000010: 9b99 86bf 007a 60bf 697d a93d 7ab8 3fbf
00000020: 5947 acbf b9e1 7e3f c9b7 c63e a0ca f7be
00000030: 1d97 4f3e f41f 5bbf e5ca 2d3e 3782 e13e
00000040: b0f5 d4be 71a4 97bf 83cd 343f b5e0 c5be
00000050: e8ff 1dbf 66c5 8ebe e78a d9be b797 373f
00000060: 6ef7 3f3f c17a 83bd fdbb 803e 6ab1 fcbe
00000070: 7c77 85bf 6ef6 493f 27fd a43f 27f3 163f
-0.22620016 -0.38820627 0.8373877 0.29140028 -1.0515627 -0.8768616 0.08275873 -0.74890864
-1.3459274 0.99563175 0.38812092 -0.48396778 0.20272489 -0.8559563 0.1697193 0.4404466
-0.41593695 -1.1847059 0.70626086 -0.38648 -0.61718607 -0.27884978 -0.42488787 0.71715873
0.7498692 -0.06419898 0.25143424 -0.49354106 -1.0427089 0.78891647 1.2889756 0.5896477

layers.4.bias f4 [4]
00000000: 8fa6 643e 8e1b c43e 2941 e33e ed4c 28be
0.22329162 0.38302273 0.4438565 -0.16435595
